program(1.0)
[buildInfo = dict<tensor<string, []>, tensor<string, []>>({{"coremlc-component-MIL", "5.33.5"}, {"coremlc-version", "1877.40.3"}, {"coremltools-component-torch", "2.1.2"}, {"coremltools-source-dialect", "TorchScript"}, {"coremltools-version", "7.1"}})]
{
    func main<ios17>(tensor<fp16, [1, 80, 1, 3000]> melspectrogram_features) {
            tensor<int32, [2]> var_38 = const()[name = tensor<string, []>("op_38"), val = tensor<int32, [2]>([1, 1])];
            tensor<int32, [2]> var_44 = const()[name = tensor<string, []>("op_44"), val = tensor<int32, [2]>([1, 1])];
            tensor<int32, []> var_49 = const()[name = tensor<string, []>("op_49"), val = tensor<int32, []>(1)];
            tensor<string, []> var_54_pad_type_0 = const()[name = tensor<string, []>("op_54_pad_type_0"), val = tensor<string, []>("custom")];
            tensor<int32, [4]> var_54_pad_0 = const()[name = tensor<string, []>("op_54_pad_0"), val = tensor<int32, [4]>([0, 0, 1, 1])];
            tensor<fp16, [512, 80, 1, 3]> var_29_to_fp16 = const()[name = tensor<string, []>("op_29_to_fp16"), val = tensor<fp16, [512, 80, 1, 3]>(BLOBFILE(path = tensor<string, []>("@model_path/weights/weight.bin"), offset = tensor<uint64, []>(64)))];
            tensor<fp16, [512]> var_35_to_fp16 = const()[name = tensor<string, []>("op_35_to_fp16"), val = tensor<fp16, [512]>(BLOBFILE(path = tensor<string, []>("@model_path/weights/weight.bin"), offset = tensor<uint64, []>(245888)))];
            tensor<fp16, [1, 512, 1, 3000]> var_54_cast_fp16 = conv(bias = var_35_to_fp16, dilations = var_44, groups = var_49, pad = var_54_pad_0, pad_type = var_54_pad_type_0, strides = var_38, weight = var_29_to_fp16, x = melspectrogram_features)[name = tensor<string, []>("op_54_cast_fp16")];
            tensor<string, []> hidden_states_1_mode_0 = const()[name = tensor<string, []>("hidden_states_1_mode_0"), val = tensor<string, []>("EXACT")];
            tensor<fp16, [1, 512, 1, 3000]> hidden_states_1_cast_fp16 = gelu(mode = hidden_states_1_mode_0, x = var_54_cast_fp16)[name = tensor<string, []>("hidden_states_1_cast_fp16")];
            tensor<int32, [2]> var_78 = const()[name = tensor<string, []>("op_78"), val = tensor<int32, [2]>([2, 2])];
            tensor<int32, [2]> var_84 = const()[name = tensor<string, []>("op_84"), val = tensor<int32, [2]>([1, 1])];
            tensor<int32, []> var_89 = const()[name = tensor<string, []>("op_89"), val = tensor<int32, []>(1)];
            tensor<string, []> var_94_pad_type_0 = const()[name = tensor<string, []>("op_94_pad_type_0"), val = tensor<string, []>("custom")];
            tensor<int32, [4]> var_94_pad_0 = const()[name = tensor<string, []>("op_94_pad_0"), val = tensor<int32, [4]>([0, 0, 1, 1])];
            tensor<fp16, [512, 512, 1, 3]> var_69_to_fp16 = const()[name = tensor<string, []>("op_69_to_fp16"), val = tensor<fp16, [512, 512, 1, 3]>(BLOBFILE(path = tensor<string, []>("@model_path/weights/weight.bin"), offset = tensor<uint64, []>(246976)))];
            tensor<fp16, [512]> var_75_to_fp16 = const()[name = tensor<string, []>("op_75_to_fp16"), val = tensor<fp16, [512]>(BLOBFILE(path = tensor<string, []>("@model_path/weights/weight.bin"), offset = tensor<uint64, []>(1819904)))];
            tensor<fp16, [1, 512, 1, 1500]> var_94_cast_fp16 = conv(bias = var_75_to_fp16, dilations = var_84, groups = var_89, pad = var_94_pad_0, pad_type = var_94_pad_type_0, strides = var_78, weight = var_69_to_fp16, x = hidden_states_1_cast_fp16)[name = tensor<string, []>("op_94_cast_fp16")];
            tensor<string, []> hidden_states_3_mode_0 = const()[name = tensor<string, []>("hidden_states_3_mode_0"), val = tensor<string, []>("EXACT")];
            tensor<fp16, [1, 512, 1, 1500]> hidden_states_3_cast_fp16 = gelu(mode = hidden_states_3_mode_0, x = var_94_cast_fp16)[name = tensor<string, []>("hidden_states_3_cast_fp16")];
            tensor<fp16, [1, 512, 1, 1500]> var_112_to_fp16 = const()[name = tensor<string, []>("op_112_to_fp16"), val = tensor<fp16, [1, 512, 1, 1500]>(BLOBFILE(path = tensor<string, []>("@model_path/weights/weight.bin"), offset = tensor<uint64, []>(1820992)))];
            tensor<fp16, [1, 512, 1, 1500]> inputs_1_cast_fp16 = add(x = hidden_states_3_cast_fp16, y = var_112_to_fp16)[name = tensor<string, []>("inputs_1_cast_fp16")];
            tensor<int32, []> var_122 = const()[name = tensor<string, []>("op_122"), val = tensor<int32, []>(3)];
            tensor<int32, []> var_135 = const()[name = tensor<string, []>("op_135"), val = tensor<int32, []>(1)];
            tensor<bool, []> var_136 = const()[name = tensor<string, []>("op_136"), val = tensor<bool, []>(true)];
            tensor<int32, [1]> var_146 = const()[name = tensor<string, []>("op_146"), val = tensor<int32, [1]>([1])];
            tensor<fp16, [1, 1, 1, 1500]> channels_mean_1_cast_fp16 = reduce_mean(axes = var_146, keep_dims = var_136, x = inputs_1_cast_fp16)[name = tensor<string, []>("channels_mean_1_cast_fp16")];
            tensor<fp16, [1, 512, 1, 1500]> zero_mean_1_cast_fp16 = sub(x = inputs_1_cast_fp16, y = channels_mean_1_cast_fp16)[name = tensor<string, []>("zero_mean_1_cast_fp16")];
            tensor<fp16, [1, 512, 1, 1500]> zero_mean_sq_1_cast_fp16 = mul(x = zero_mean_1_cast_fp16, y = zero_mean_1_cast_fp16)[name = tensor<string, []>("zero_mean_sq_1_cast_fp16")];
            tensor<int32, [1]> var_150 = const()[name = tensor<string, []>("op_150"), val = tensor<int32, [1]>([1])];
            tensor<fp16, [1, 1, 1, 1500]> var_151_cast_fp16 = reduce_mean(axes = var_150, keep_dims = var_136, x = zero_mean_sq_1_cast_fp16)[name = tensor<string, []>("op_151_cast_fp16")];
            tensor<fp16, []> var_152_to_fp16 = const()[name = tensor<string, []>("op_152_to_fp16"), val = tensor<fp16, []>(0x1.5p-17)];
            tensor<fp16, [1, 1, 1, 1500]> var_153_cast_fp16 = add(x = var_151_cast_fp16, y = var_152_to_fp16)[name = tensor<string, []>("op_153_cast_fp16")];
            tensor<fp32, []> denom_1_epsilon_0 = const()[name = tensor<string, []>("denom_1_epsilon_0"), val = tensor<fp32, []>(0x1.197998p-40)];
            tensor<fp16, [1, 1, 1, 1500]> denom_1_cast_fp16 = rsqrt(epsilon = denom_1_epsilon_0, x = var_153_cast_fp16)[name = tensor<string, []>("denom_1_cast_fp16")];
            tensor<fp16, [1, 512, 1, 1500]> out_1_cast_fp16 = mul(x = zero_mean_1_cast_fp16, y = denom_1_cast_fp16)[name = tensor<string, []>("out_1_cast_fp16")];
            tensor<fp16, [512]> obj_1_mean_0_to_fp16 = const()[name = tensor<string, []>("obj_1_mean_0_to_fp16"), val = tensor<fp16, [512]>(BLOBFILE(path = tensor<string, []>("@model_path/weights/weight.bin"), offset = tensor<uint64, []>(3357056)))];
            tensor<fp16, [512]> obj_1_variance_0_to_fp16 = const()[name = tensor<string, []>("obj_1_variance_0_to_fp16"), val = tensor<fp16, [512]>(BLOBFILE(path = tensor<string, []>("@model_path/weights/weight.bin"), offset = tensor<uint64, []>(3358144)))];
            tensor<fp16, [512]> obj_1_gamma_0_to_fp16 = const()[name = tensor<string, []>("obj_1_gamma_0_to_fp16"), val = tensor<fp16, [512]>(BLOBFILE(path = tensor<string, []>("@model_path/weights/weight.bin"), offset = tensor<uint64, []>(3359232)))];
            tensor<fp16, [512]> obj_1_beta_0_to_fp16 = const()[name = tensor<string, []>("obj_1_beta_0_to_fp16"), val = tensor<fp16, [512]>(BLOBFILE(path = tensor<string, []>("@model_path/weights/weight.bin"), offset = tensor<uint64, []>(3360320)))];
            tensor<fp16, []> obj_1_epsilon_0_to_fp16 = const()[name = tensor<string, []>("obj_1_epsilon_0_to_fp16"), val = tensor<fp16, []>(0x1.5p-17)];
            tensor<fp16, [1, 512, 1, 1500]> obj_1_cast_fp16 = batch_norm(beta = obj_1_beta_0_to_fp16, epsilon = obj_1_epsilon_0_to_fp16, gamma = obj_1_gamma_0_to_fp16, mean = obj_1_mean_0_to_fp16, variance = obj_1_variance_0_to_fp16, x = out_1_cast_fp16)[name = tensor<string, []>("obj_1_cast_fp16")];
            tensor<int32, [2]> var_168 = const()[name = tensor<string, []>("op_168"), val = tensor<int32, [2]>([1, 1])];
            tensor<int32, [2]> var_170 = const()[name = tensor<string, []>("op_170"), val = tensor<int32, [2]>([1, 1])];
            tensor<string, []> query_1_pad_type_0 = const()[name = tensor<string, []>("query_1_pad_type_0"), val = tensor<string, []>("custom")];
            tensor<int32, [4]> query_1_pad_0 = const()[name = tensor<string, []>("query_1_pad_0"), val = tensor<int32, [4]>([0, 0, 0, 0])];
            tensor<fp16, [512, 512, 1, 1]> layers_0_self_attn_q_proj_weight_to_fp16 = const()[name = tensor<string, []>("layers_0_self_attn_q_proj_weight_to_fp16"), val = tensor<fp16, [512, 512, 1, 1]>(BLOBFILE(path = tensor<string, []>("@model_path/weights/weight.bin"), offset = tensor<uint64, []>(3361408)))];
            tensor<fp16, [512]> layers_0_self_attn_q_proj_bias_to_fp16 = const()[name = tensor<string, []>("layers_0_self_attn_q_proj_bias_to_fp16"), val = tensor<fp16, [512]>(BLOBFILE(path = tensor<string, []>("@model_path/weights/weight.bin"), offset = tensor<uint64, []>(3885760)))];
            tensor<fp16, [1, 512, 1, 1500]> query_1_cast_fp16 = conv(bias = layers_0_self_attn_q_proj_bias_to_fp16, dilations = var_170, groups = var_135, pad = query_1_pad_0, pad_type = query_1_pad_type_0, strides = var_168, weight = layers_0_self_attn_q_proj_weight_to_fp16, x = obj_1_cast_fp16)[name = tensor<string, []>("query_1_cast_fp16")];
            tensor<int32, [2]> var_174 = const()[name = tensor<string, []>("op_174"), val = tensor<int32, [2]>([1, 1])];
            tensor<int32, [2]> var_176 = const()[name = tensor<string, []>("op_176"), val = tensor<int32, [2]>([1, 1])];
            tensor<string, []> key_1_pad_type_0 = const()[name = tensor<string, []>("key_1_pad_type_0"), val = tensor<string, []>("custom")];
            tensor<int32, [4]> key_1_pad_0 = const()[name = tensor<string, []>("key_1_pad_0"), val = tensor<int32, [4]>([0, 0, 0, 0])];
            tensor<fp16, [512, 512, 1, 1]> layers_0_self_attn_k_proj_weight_to_fp16 = const()[name = tensor<string, []>("layers_0_self_attn_k_proj_weight_to_fp16"), val = tensor<fp16, [512, 512, 1, 1]>(BLOBFILE(path = tensor<string, []>("@model_path/weights/weight.bin"), offset = tensor<uint64, []>(3886848)))];
            tensor<fp16, [1, 512, 1, 1500]> key_1_cast_fp16 = conv(dilations = var_176, groups = var_135, pad = key_1_pad_0, pad_type = key_1_pad_type_0, strides = var_174, weight = layers_0_self_attn_k_proj_weight_to_fp16, x = obj_1_cast_fp16)[name = tensor<string, []>("key_1_cast_fp16")];
            tensor<int32, [2]> var_181 = const()[name = tensor<string, []>("op_181"), val = tensor<int32, [2]>([1, 1])];
            tensor<int32, [2]> var_183 = const()[name = tensor<string, []>("op_183"), val = tensor<int32, [2]>([1, 1])];
            tensor<string, []> value_1_pad_type_0 = const()[name = tensor<string, []>("value_1_pad_type_0"), val = tensor<string, []>("custom")];
            tensor<int32, [4]> value_1_pad_0 = const()[name = tensor<string, []>("value_1_pad_0"), val = tensor<int32, [4]>([0, 0, 0, 0])];
            tensor<fp16, [512, 512, 1, 1]> layers_0_self_attn_v_proj_weight_to_fp16 = const()[name = tensor<string, []>("layers_0_self_attn_v_proj_weight_to_fp16"), val = tensor<fp16, [512, 512, 1, 1]>(BLOBFILE(path = tensor<string, []>("@model_path/weights/weight.bin"), offset = tensor<uint64, []>(4411200)))];
            tensor<fp16, [512]> layers_0_self_attn_v_proj_bias_to_fp16 = const()[name = tensor<string, []>("layers_0_self_attn_v_proj_bias_to_fp16"), val = tensor<fp16, [512]>(BLOBFILE(path = tensor<string, []>("@model_path/weights/weight.bin"), offset = tensor<uint64, []>(4935552)))];
            tensor<fp16, [1, 512, 1, 1500]> value_1_cast_fp16 = conv(bias = layers_0_self_attn_v_proj_bias_to_fp16, dilations = var_183, groups = var_135, pad = value_1_pad_0, pad_type = value_1_pad_type_0, strides = var_181, weight = layers_0_self_attn_v_proj_weight_to_fp16, x = obj_1_cast_fp16)[name = tensor<string, []>("value_1_cast_fp16")];
            tensor<int32, [4]> var_190_begin_0 = const()[name = tensor<string, []>("op_190_begin_0"), val = tensor<int32, [4]>([0, 0, 0, 0])];
            tensor<int32, [4]> var_190_end_0 = const()[name = tensor<string, []>("op_190_end_0"), val = tensor<int32, [4]>([1, 64, 1, 1500])];
            tensor<bool, [4]> var_190_end_mask_0 = const()[name = tensor<string, []>("op_190_end_mask_0"), val = tensor<bool, [4]>([true, false, true, true])];
            tensor<fp16, [1, 64, 1, 1500]> var_190_cast_fp16 = slice_by_index(begin = var_190_begin_0, end = var_190_end_0, end_mask = var_190_end_mask_0, x = query_1_cast_fp16)[name = tensor<string, []>("op_190_cast_fp16")];
            tensor<int32, [4]> var_194_begin_0 = const()[name = tensor<string, []>("op_194_begin_0"), val = tensor<int32, [4]>([0, 64, 0, 0])];
            tensor<int32, [4]> var_194_end_0 = const()[name = tensor<string, []>("op_194_end_0"), val = tensor<int32, [4]>([1, 128, 1, 1500])];
            tensor<bool, [4]> var_194_end_mask_0 = const()[name = tensor<string, []>("op_194_end_mask_0"), val = tensor<bool, [4]>([true, false, true, true])];
            tensor<fp16, [1, 64, 1, 1500]> var_194_cast_fp16 = slice_by_index(begin = var_194_begin_0, end = var_194_end_0, end_mask = var_194_end_mask_0, x = query_1_cast_fp16)[name = tensor<string, []>("op_194_cast_fp16")];
            tensor<int32, [4]> var_198_begin_0 = const()[name = tensor<string, []>("op_198_begin_0"), val = tensor<int32, [4]>([0, 128, 0, 0])];
            tensor<int32, [4]> var_198_end_0 = const()[name = tensor<string, []>("op_198_end_0"), val = tensor<int32, [4]>([1, 192, 1, 1500])];
            tensor<bool, [4]> var_198_end_mask_0 = const()[name = tensor<string, []>("op_198_end_mask_0"), val = tensor<bool, [4]>([true, false, true, true])];
            tensor<fp16, [1, 64, 1, 1500]> var_198_cast_fp16 = slice_by_index(begin = var_198_begin_0, end = var_198_end_0, end_mask = var_198_end_mask_0, x = query_1_cast_fp16)[name = tensor<string, []>("op_198_cast_fp16")];
            tensor<int32, [4]> var_202_begin_0 = const()[name = tensor<string, []>("op_202_begin_0"), val = tensor<int32, [4]>([0, 192, 0, 0])];
            tensor<int32, [4]> var_202_end_0 = const()[name = tensor<string, []>("op_202_end_0"), val = tensor<int32, [4]>([1, 256, 1, 1500])];
            tensor<bool, [4]> var_202_end_mask_0 = const()[name = tensor<string, []>("op_202_end_mask_0"), val = tensor<bool, [4]>([true, false, true, true])];
            tensor<fp16, [1, 64, 1, 1500]> var_202_cast_fp16 = slice_by_index(begin = var_202_begin_0, end = var_202_end_0, end_mask = var_202_end_mask_0, x = query_1_cast_fp16)[name = tensor<string, []>("op_202_cast_fp16")];
            tensor<int32, [4]> var_206_begin_0 = const()[name = tensor<string, []>("op_206_begin_0"), val = tensor<int32, [4]>([0, 256, 0, 0])];
            tensor<int32, [4]> var_206_end_0 = const()[name = tensor<string, []>("op_206_end_0"), val = tensor<int32, [4]>([1, 320, 1, 1500])];
            tensor<bool, [4]> var_206_end_mask_0 = const()[name = tensor<string, []>("op_206_end_mask_0"), val = tensor<bool, [4]>([true, false, true, true])];
            tensor<fp16, [1, 64, 1, 1500]> var_206_cast_fp16 = slice_by_index(begin = var_206_begin_0, end = var_206_end_0, end_mask = var_206_end_mask_0, x = query_1_cast_fp16)[name = tensor<string, []>("op_206_cast_fp16")];
            tensor<int32, [4]> var_210_begin_0 = const()[name = tensor<string, []>("op_210_begin_0"), val = tensor<int32, [4]>([0, 320, 0, 0])];
            tensor<int32, [4]> var_210_end_0 = const()[name = tensor<string, []>("op_210_end_0"), val = tensor<int32, [4]>([1, 384, 1, 1500])];
            tensor<bool, [4]> var_210_end_mask_0 = const()[name = tensor<string, []>("op_210_end_mask_0"), val = tensor<bool, [4]>([true, false, true, true])];
            tensor<fp16, [1, 64, 1, 1500]> var_210_cast_fp16 = slice_by_index(begin = var_210_begin_0, end = var_210_end_0, end_mask = var_210_end_mask_0, x = query_1_cast_fp16)[name = tensor<string, []>("op_210_cast_fp16")];
            tensor<int32, [4]> var_214_begin_0 = const()[name = tensor<string, []>("op_214_begin_0"), val = tensor<int32, [4]>([0, 384, 0, 0])];
            tensor<int32, [4]> var_214_end_0 = const()[name = tensor<string, []>("op_214_end_0"), val = tensor<int32, [4]>([1, 448, 1, 1500])];
            tensor<bool, [4]> var_214_end_mask_0 = const()[name = tensor<string, []>("op_214_end_mask_0"), val = tensor<bool, [4]>([true, false, true, true])];
            tensor<fp16, [1, 64, 1, 1500]> var_214_cast_fp16 = slice_by_index(begin = var_214_begin_0, end = var_214_end_0, end_mask = var_214_end_mask_0, x = query_1_cast_fp16)[name = tensor<string, []>("op_214_cast_fp16")];
            tensor<int32, [4]> var_218_begin_0 = const()[name = tensor<string, []>("op_218_begin_0"), val = tensor<int32, [4]>([0, 448, 0, 0])];
            tensor<int32, [4]> var_218_end_0 = const()[name = tensor<string, []>("op_218_end_0"), val = tensor<int32, [4]>([1, 512, 1, 1500])];
            tensor<bool, [4]> var_218_end_mask_0 = const()[name = tensor<string, []>("op_218_end_mask_0"), val = tensor<bool, [4]>([true, false, true, true])];
            tensor<fp16, [1, 64, 1, 1500]> var_218_cast_fp16 = slice_by_index(begin = var_218_begin_0, end = var_218_end_0, end_mask = var_218_end_mask_0, x = query_1_cast_fp16)[name = tensor<string, []>("op_218_cast_fp16")];
            tensor<int32, [4]> var_227_begin_0 = const()[name = tensor<string, []>("op_227_begin_0"), val = tensor<int32, [4]>([0, 0, 0, 0])];
            tensor<int32, [4]> var_227_end_0 = const()[name = tensor<string, []>("op_227_end_0"), val = tensor<int32, [4]>([1, 64, 1, 375])];
            tensor<bool, [4]> var_227_end_mask_0 = const()[name = tensor<string, []>("op_227_end_mask_0"), val = tensor<bool, [4]>([true, true, true, false])];
            tensor<fp16, [1, 64, 1, 375]> var_227_cast_fp16 = slice_by_index(begin = var_227_begin_0, end = var_227_end_0, end_mask = var_227_end_mask_0, x = var_190_cast_fp16)[name = tensor<string, []>("op_227_cast_fp16")];
            tensor<int32, [4]> var_234_begin_0 = const()[name = tensor<string, []>("op_234_begin_0"), val = tensor<int32, [4]>([0, 0, 0, 375])];
            tensor<int32, [4]> var_234_end_0 = const()[name = tensor<string, []>("op_234_end_0"), val = tensor<int32, [4]>([1, 64, 1, 750])];
            tensor<bool, [4]> var_234_end_mask_0 = const()[name = tensor<string, []>("op_234_end_mask_0"), val = tensor<bool, [4]>([true, true, true, false])];
            tensor<fp16, [1, 64, 1, 375]> var_234_cast_fp16 = slice_by_index(begin = var_234_begin_0, end = var_234_end_0, end_mask = var_234_end_mask_0, x = var_190_cast_fp16)[name = tensor<string, []>("op_234_cast_fp16")];
            tensor<int32, [4]> var_241_begin_0 = const()[name = tensor<string, []>("op_241_begin_0"), val = tensor<int32, [4]>([0, 0, 0, 750])];
            tensor<int32, [4]> var_241_end_0 = const()[name = tensor<string, []>("op_241_end_0"), val = tensor<int32, [4]>([1, 64, 1, 1125])];
            tensor<bool, [4]> var_241_end_mask_0 = const()[name = tensor<string, []>("op_241_end_mask_0"), val = tensor<bool, [4]>([true, true, true, false])];
            tensor<fp16, [1, 64, 1, 375]> var_241_cast_fp16 = slice_by_index(begin = var_241_begin_0, end = var_241_end_0, end_mask = var_241_end_mask_0, x = var_190_cast_fp16)[name = tensor<string, []>("op_241_cast_fp16")];
            tensor<int32, [4]> var_248_begin_0 = const()[name = tensor<string, []>("op_248_begin_0"), val = tensor<int32, [4]>([0, 0, 0, 1125])];
            tensor<int32, [4]> var_248_end_0 = const()[name = tensor<string, []>("op_248_end_0"), val = tensor<int32, [4]>([1, 64, 1, 1500])];
            tensor<bool, [4]> var_248_end_mask_0 = const()[name = tensor<string, []>("op_248_end_mask_0"), val = tensor<bool, [4]>([true, true, true, false])];
            tensor<fp16, [1, 64, 1, 375]> var_248_cast_fp16 = slice_by_index(begin = var_248_begin_0, end = var_248_end_0, end_mask = var_248_end_mask_0, x = var_190_cast_fp16)[name = tensor<string, []>("op_248_cast_fp16")];
            tensor<int32, [4]> var_255_begin_0 = const()[name = tensor<string, []>("op_255_begin_0"), val = tensor<int32, [4]>([0, 0, 0, 0])];
            tensor<int32, [4]> var_255_end_0 = const()[name = tensor<string, []>("op_255_end_0"), val = tensor<int32, [4]>([1, 64, 1, 375])];
            tensor<bool, [4]> var_255_end_mask_0 = const()[name = tensor<string, []>("op_255_end_mask_0"), val = tensor<bool, [4]>([true, true, true, false])];
            tensor<fp16, [1, 64, 1, 375]> var_255_cast_fp16 = slice_by_index(begin = var_255_begin_0, end = var_255_end_0, end_mask = var_255_end_mask_0, x = var_194_cast_fp16)[name = tensor<string, []>("op_255_cast_fp16")];
            tensor<int32, [4]> var_262_begin_0 = const()[name = tensor<string, []>("op_262_begin_0"), val = tensor<int32, [4]>([0, 0, 0, 375])];
            tensor<int32, [4]> var_262_end_0 = const()[name = tensor<string, []>("op_262_end_0"), val = tensor<int32, [4]>([1, 64, 1, 750])];
            tensor<bool, [4]> var_262_end_mask_0 = const()[name = tensor<string, []>("op_262_end_mask_0"), val = tensor<bool, [4]>([true, true, true, false])];
            tensor<fp16, [1, 64, 1, 375]> var_262_cast_fp16 = slice_by_index(begin = var_262_begin_0, end = var_262_end_0, end_mask = var_262_end_mask_0, x = var_194_cast_fp16)[name = tensor<string, []>("op_262_cast_fp16")];
            tensor<int32, [4]> var_269_begin_0 = const()[name = tensor<string, []>("op_269_begin_0"), val = tensor<int32, [4]>([0, 0, 0, 750])];
            tensor<int32, [4]> var_269_end_0 = const()[name = tensor<string, []>("op_269_end_0"), val = tensor<int32, [4]>([1, 64, 1, 1125])];
            tensor<bool, [4]> var_269_end_mask_0 = const()[name = tensor<string, []>("op_269_end_mask_0"), val = tensor<bool, [4]>([true, true, true, false])];
            tensor<fp16, [1, 64, 1, 375]> var_269_cast_fp16 = slice_by_index(begin = var_269_begin_0, end = var_269_end_0, end_mask = var_269_end_mask_0, x = var_194_cast_fp16)[name = tensor<string, []>("op_269_cast_fp16")];
            tensor<int32, [4]> var_276_begin_0 = const()[name = tensor<string, []>("op_276_begin_0"), val = tensor<int32, [4]>([0, 0, 0, 1125])];
            tensor<int32, [4]> var_276_end_0 = const()[name = tensor<string, []>("op_276_end_0"), val = tensor<int32, [4]>([1, 64, 1, 1500])];
            tensor<bool, [4]> var_276_end_mask_0 = const()[name = tensor<string, []>("op_276_end_mask_0"), val = tensor<bool, [4]>([true, true, true, false])];
            tensor<fp16, [1, 64, 1, 375]> var_276_cast_fp16 = slice_by_index(begin = var_276_begin_0, end = var_276_end_0, end_mask = var_276_end_mask_0, x = var_194_cast_fp16)[name = tensor<string, []>("op_276_cast_fp16")];
            tensor<int32, [4]> var_283_begin_0 = const()[name = tensor<string, []>("op_283_begin_0"), val = tensor<int32, [4]>([0, 0, 0, 0])];
            tensor<int32, [4]> var_283_end_0 = const()[name = tensor<string, []>("op_283_end_0"), val = tensor<int32, [4]>([1, 64, 1, 375])];
            tensor<bool, [4]> var_283_end_mask_0 = const()[name = tensor<string, []>("op_283_end_mask_0"), val = tensor<bool, [4]>([true, true, true, false])];
            tensor<fp16, [1, 64, 1, 375]> var_283_cast_fp16 = slice_by_index(begin = var_283_begin_0, end = var_283_end_0, end_mask = var_283_end_mask_0, x = var_198_cast_fp16)[name = tensor<string, []>("op_283_cast_fp16")];
            tensor<int32, [4]> var_290_begin_0 = const()[name = tensor<string, []>("op_290_begin_0"), val = tensor<int32, [4]>([0, 0, 0, 375])];
            tensor<int32, [4]> var_290_end_0 = const()[name = tensor<string, []>("op_290_end_0"), val = tensor<int32, [4]>([1, 64, 1, 750])];
            tensor<bool, [4]> var_290_end_mask_0 = const()[name = tensor<string, []>("op_290_end_mask_0"), val = tensor<bool, [4]>([true, true, true, false])];
            tensor<fp16, [1, 64, 1, 375]> var_290_cast_fp16 = slice_by_index(begin = var_290_begin_0, end = var_290_end_0, end_mask = var_290_end_mask_0, x = var_198_cast_fp16)[name = tensor<string, []>("op_290_cast_fp16")];
            tensor<int32, [4]> var_297_begin_0 = const()[name = tensor<string, []>("op_297_begin_0"), val = tensor<int32, [4]>([0, 0, 0, 750])];
            tensor<int32, [4]> var_297_end_0 = const()[name = tensor<string, []>("op_297_end_0"), val = tensor<int32, [4]>([1, 64, 1, 1125])];
            tensor<bool, [4]> var_297_end_mask_0 = const()[name = tensor<string, []>("op_297_end_mask_0"), val = tensor<bool, [4]>([true, true, true, false])];
            tensor<fp16, [1, 64, 1, 375]> var_297_cast_fp16 = slice_by_index(begin = var_297_begin_0, end = var_297_end_0, end_mask = var_297_end_mask_0, x = var_198_cast_fp16)[name = tensor<string, []>("op_297_cast_fp16")];
            tensor<int32, [4]> var_304_begin_0 = const()[name = tensor<string, []>("op_304_begin_0"), val = tensor<int32, [4]>([0, 0, 0, 1125])];
            tensor<int32, [4]> var_304_end_0 = const()[name = tensor<string, []>("op_304_end_0"), val = tensor<int32, [4]>([1, 64, 1, 1500])];
            tensor<bool, [4]> var_304_end_mask_0 = const()[name = tensor<string, []>("op_304_end_mask_0"), val = tensor<bool, [4]>([true, true, true, false])];
            tensor<fp16, [1, 64, 1, 375]> var_304_cast_fp16 = slice_by_index(begin = var_304_begin_0, end = var_304_end_0, end_mask = var_304_end_mask_0, x = var_198_cast_fp16)[name = tensor<string, []>("op_304_cast_fp16")];
            tensor<int32, [4]> var_311_begin_0 = const()[name = tensor<string, []>("op_311_begin_0"), val = tensor<int32, [4]>([0, 0, 0, 0])];
            tensor<int32, [4]> var_311_end_0 = const()[name = tensor<string, []>("op_311_end_0"), val = tensor<int32, [4]>([1, 64, 1, 375])];
            tensor<bool, [4]> var_311_end_mask_0 = const()[name = tensor<string, []>("op_311_end_mask_0"), val = tensor<bool, [4]>([true, true, true, false])];
            tensor<fp16, [1, 64, 1, 375]> var_311_cast_fp16 = slice_by_index(begin = var_311_begin_0, end = var_311_end_0, end_mask = var_311_end_mask_0, x = var_202_cast_fp16)[name = tensor<string, []>("op_311_cast_fp16")];
            tensor<int32, [4]> var_318_begin_0 = const()[name = tensor<string, []>("op_318_begin_0"), val = tensor<int32, [4]>([0, 0, 0, 375])];
            tensor<int32, [4]> var_318_end_0 = const()[name = tensor<string, []>("op_318_end_0"), val = tensor<int32, [4]>([1, 64, 1, 750])];
            tensor<bool, [4]> var_318_end_mask_0 = const()[name = tensor<string, []>("op_318_end_mask_0"), val = tensor<bool, [4]>([true, true, true, false])];
            tensor<fp16, [1, 64, 1, 375]> var_318_cast_fp16 = slice_by_index(begin = var_318_begin_0, end = var_318_end_0, end_mask = var_318_end_mask_0, x = var_202_cast_fp16)[name = tensor<string, []>("op_318_cast_fp16")];
            tensor<int32, [4]> var_325_begin_0 = const()[name = tensor<string, []>("op_325_begin_0"), val = tensor<int32, [4]>([0, 0, 0, 750])];
            tensor<int32, [4]> var_325_end_0 = const()[name = tensor<string, []>("op_325_end_0"), val = tensor<int32, [4]>([1, 64, 1, 1125])];
            tensor<bool, [4]> var_325_end_mask_0 = const()[name = tensor<string, []>("op_325_end_mask_0"), val = tensor<bool, [4]>([true, true, true, false])];
            tensor<fp16, [1, 64, 1, 375]> var_325_cast_fp16 = slice_by_index(begin = var_325_begin_0, end = var_325_end_0, end_mask = var_325_end_mask_0, x = var_202_cast_fp16)[name = tensor<string, []>("op_325_cast_fp16")];
            tensor<int32, [4]> var_332_begin_0 = const()[name = tensor<string, []>("op_332_begin_0"), val = tensor<int32, [4]>([0, 0, 0, 1125])];
            tensor<int32, [4]> var_332_end_0 = const()[name = tensor<string, []>("op_332_end_0"), val = tensor<int32, [4]>([1, 64, 1, 1500])];
            tensor<bool, [4]> var_332_end_mask_0 = const()[name = tensor<string, []>("op_332_end_mask_0"), val = tensor<bool, [4]>([true, true, true, false])];
            tensor<fp16, [1, 64, 1, 375]> var_332_cast_fp16 = slice_by_index(begin = var_332_begin_0, end = var_332_end_0, end_mask = var_332_end_mask_0, x = var_202_cast_fp16)[name = tensor<string, []>("op_332_cast_fp16")];
            tensor<int32, [4]> var_339_begin_0 = const()[name = tensor<string, []>("op_339_begin_0"), val = tensor<int32, [4]>([0, 0, 0, 0])];
            tensor<int32, [4]> var_339_end_0 = const()[name = tensor<string, []>("op_339_end_0"), val = tensor<int32, [4]>([1, 64, 1, 375])];
            tensor<bool, [4]> var_339_end_mask_0 = const()[name = tensor<string, []>("op_339_end_mask_0"), val = tensor<bool, [4]>([true, true, true, false])];
            tensor<fp16, [1, 64, 1, 375]> var_339_cast_fp16 = slice_by_index(begin = var_339_begin_0, end = var_339_end_0, end_mask = var_339_end_mask_0, x = var_206_cast_fp16)[name = tensor<string, []>("op_339_cast_fp16")];
            tensor<int32, [4]> var_346_begin_0 = const()[name = tensor<string, []>("op_346_begin_0"), val = tensor<int32, [4]>([0, 0, 0, 375])];
            tensor<int32, [4]> var_346_end_0 = const()[name = tensor<string, []>("op_346_end_0"), val = tensor<int32, [4]>([1, 64, 1, 750])];
            tensor<bool, [4]> var_346_end_mask_0 = const()[name = tensor<string, []>("op_346_end_mask_0"), val = tensor<bool, [4]>([true, true, true, false])];
            tensor<fp16, [1, 64, 1, 375]> var_346_cast_fp16 = slice_by_index(begin = var_346_begin_0, end = var_346_end_0, end_mask = var_346_end_mask_0, x = var_206_cast_fp16)[name = tensor<string, []>("op_346_cast_fp16")];
            tensor<int32, [4]> var_353_begin_0 = const()[name = tensor<string, []>("op_353_begin_0"), val = tensor<int32, [4]>([0, 0, 0, 750])];
            tensor<int32, [4]> var_353_end_0 = const()[name = tensor<string, []>("op_353_end_0"), val = tensor<int32, [4]>([1, 64, 1, 1125])];
            tensor<bool, [4]> var_353_end_mask_0 = const()[name = tensor<string, []>("op_353_end_mask_0"), val = tensor<bool, [4]>([true, true, true, false])];
            tensor<fp16, [1, 64, 1, 375]> var_353_cast_fp16 = slice_by_index(begin = var_353_begin_0, end = var_353_end_0, end_mask = var_353_end_mask_0, x = var_206_cast_fp16)[name = tensor<string, []>("op_353_cast_fp16")];
            tensor<int32, [4]> var_360_begin_0 = const()[name = tensor<string, []>("op_360_begin_0"), val = tensor<int32, [4]>([0, 0, 0, 1125])];
            tensor<int32, [4]> var_360_end_0 = const()[name = tensor<string, []>("op_360_end_0"), val = tensor<int32, [4]>([1, 64, 1, 1500])];
            tensor<bool, [4]> var_360_end_mask_0 = const()[name = tensor<string, []>("op_360_end_mask_0"), val = tensor<bool, [4]>([true, true, true, false])];
            tensor<fp16, [1, 64, 1, 375]> var_360_cast_fp16 = slice_by_index(begin = var_360_begin_0, end = var_360_end_0, end_mask = var_360_end_mask_0, x = var_206_cast_fp16)[name = tensor<string, []>("op_360_cast_fp16")];
            tensor<int32, [4]> var_367_begin_0 = const()[name = tensor<string, []>("op_367_begin_0"), val = tensor<int32, [4]>([0, 0, 0, 0])];
            tensor<int32, [4]> var_367_end_0 = const()[name = tensor<string, []>("op_367_end_0"), val = tensor<int32, [4]>([1, 64, 1, 375])];
            tensor<bool, [4]> var_367_end_mask_0 = const()[name = tensor<string, []>("op_367_end_mask_0"), val = tensor<bool, [4]>([true, true, true, false])];
            tensor<fp16, [1, 64, 1, 375]> var_367_cast_fp16 = slice_by_index(begin = var_367_begin_0, end = var_367_end_0, end_mask = var_367_end_mask_0, x = var_210_cast_fp16)[name = tensor<string, []>("op_367_cast_fp16")];
            tensor<int32, [4]> var_374_begin_0 = const()[name = tensor<string, []>("op_374_begin_0"), val = tensor<int32, [4]>([0, 0, 0, 375])];
            tensor<int32, [4]> var_374_end_0 = const()[name = tensor<string, []>("op_374_end_0"), val = tensor<int32, [4]>([1, 64, 1, 750])];
            tensor<bool, [4]> var_374_end_mask_0 = const()[name = tensor<string, []>("op_374_end_mask_0"), val = tensor<bool, [4]>([true, true, true, false])];
            tensor<fp16, [1, 64, 1, 375]> var_374_cast_fp16 = slice_by_index(begin = var_374_begin_0, end = var_374_end_0, end_mask = var_374_end_mask_0, x = var_210_cast_fp16)[name = tensor<string, []>("op_374_cast_fp16")];
            tensor<int32, [4]> var_381_begin_0 = const()[name = tensor<string, []>("op_381_begin_0"), val = tensor<int32, [4]>([0, 0, 0, 750])];
            tensor<int32, [4]> var_381_end_0 = const()[name = tensor<string, []>("op_381_end_0"), val = tensor<int32, [4]>([1, 64, 1, 1125])];
            tensor<bool, [4]> var_381_end_mask_0 = const()[name = tensor<string, []>("op_381_end_mask_0"), val = tensor<bool, [4]>([true, true, true, false])];
            tensor<fp16, [1, 64, 1, 375]> var_381_cast_fp16 = slice_by_index(begin = var_381_begin_0, end = var_381_end_0, end_mask = var_381_end_mask_0, x = var_210_cast_fp16)[name = tensor<string, []>("op_381_cast_fp16")];
            tensor<int32, [4]> var_388_begin_0 = const()[name = tensor<string, []>("op_388_begin_0"), val = tensor<int32, [4]>([0, 0, 0, 1125])];
            tensor<int32, [4]> var_388_end_0 = const()[name = tensor<string, []>("op_388_end_0"), val = tensor<int32, [4]>([1, 64, 1, 1500])];
            tensor<bool, [4]> var_388_end_mask_0 = const()[name = tensor<string, []>("op_388_end_mask_0"), val = tensor<bool, [4]>([true, true, true, false])];
            tensor<fp16, [1, 64, 1, 375]> var_388_cast_fp16 = slice_by_index(begin = var_388_begin_0, end = var_388_end_0, end_mask = var_388_end_mask_0, x = var_210_cast_fp16)[name = tensor<string, []>("op_388_cast_fp16")];
            tensor<int32, [4]> var_395_begin_0 = const()[name = tensor<string, []>("op_395_begin_0"), val = tensor<int32, [4]>([0, 0, 0, 0])];
            tensor<int32, [4]> var_395_end_0 = const()[name = tensor<string, []>("op_395_end_0"), val = tensor<int32, [4]>([1, 64, 1, 375])];
            tensor<bool, [4]> var_395_end_mask_0 = const()[name = tensor<string, []>("op_395_end_mask_0"), val = tensor<bool, [4]>([true, true, true, false])];
            tensor<fp16, [1, 64, 1, 375]> var_395_cast_fp16 = slice_by_index(begin = var_395_begin_0, end = var_395_end_0, end_mask = var_395_end_mask_0, x = var_214_cast_fp16)[name = tensor<string, []>("op_395_cast_fp16")];
            tensor<int32, [4]> var_402_begin_0 = const()[name = tensor<string, []>("op_402_begin_0"), val = tensor<int32, [4]>([0, 0, 0, 375])];
            tensor<int32, [4]> var_402_end_0 = const()[name = tensor<string, []>("op_402_end_0"), val = tensor<int32, [4]>([1, 64, 1, 750])];
            tensor<bool, [4]> var_402_end_mask_0 = const()[name = tensor<string, []>("op_402_end_mask_0"), val = tensor<bool, [4]>([true, true, true, false])];
            tensor<fp16, [1, 64, 1, 375]> var_402_cast_fp16 = slice_by_index(begin = var_402_begin_0, end = var_402_end_0, end_mask = var_402_end_mask_0, x = var_214_cast_fp16)[name = tensor<string, []>("op_402_cast_fp16")];
            tensor<int32, [4]> var_409_begin_0 = const()[name = tensor<string, []>("op_409_begin_0"), val = tensor<int32, [4]>([0, 0, 0, 750])];
            tensor<int32, [4]> var_409_end_0 = const()[name = tensor<string, []>("op_409_end_0"), val = tensor<int32, [4]>([1, 64, 1, 1125])];
            tensor<bool, [4]> var_409_end_mask_0 = const()[name = tensor<string, []>("op_409_end_mask_0"), val = tensor<bool, [4]>([true, true, true, false])];
            tensor<fp16, [1, 64, 1, 375]> var_409_cast_fp16 = slice_by_index(begin = var_409_begin_0, end = var_409_end_0, end_mask = var_409_end_mask_0, x = var_214_cast_fp16)[name = tensor<string, []>("op_409_cast_fp16")];
            tensor<int32, [4]> var_416_begin_0 = const()[name = tensor<string, []>("op_416_begin_0"), val = tensor<int32, [4]>([0, 0, 0, 1125])];
            tensor<int32, [4]> var_416_end_0 = const()[name = tensor<string, []>("op_416_end_0"), val = tensor<int32, [4]>([1, 64, 1, 1500])];
            tensor<bool, [4]> var_416_end_mask_0 = const()[name = tensor<string, []>("op_416_end_mask_0"), val = tensor<bool, [4]>([true, true, true, false])];
            tensor<fp16, [1, 64, 1, 375]> var_416_cast_fp16 = slice_by_index(begin = var_416_begin_0, end = var_416_end_0, end_mask = var_416_end_mask_0, x = var_214_cast_fp16)[name = tensor<string, []>("op_416_cast_fp16")];
            tensor<int32, [4]> var_423_begin_0 = const()[name = tensor<string, []>("op_423_begin_0"), val = tensor<int32, [4]>([0, 0, 0, 0])];
            tensor<int32, [4]> var_423_end_0 = const()[name = tensor<string, []>("op_423_end_0"), val = tensor<int32, [4]>([1, 64, 1, 375])];
            tensor<bool, [4]> var_423_end_mask_0 = const()[name = tensor<string, []>("op_423_end_mask_0"), val = tensor<bool, [4]>([true, true, true, false])];
            tensor<fp16, [1, 64, 1, 375]> var_423_cast_fp16 = slice_by_index(begin = var_423_begin_0, end = var_423_end_0, end_mask = var_423_end_mask_0, x = var_218_cast_fp16)[name = tensor<string, []>("op_423_cast_fp16")];
            tensor<int32, [4]> var_430_begin_0 = const()[name = tensor<string, []>("op_430_begin_0"), val = tensor<int32, [4]>([0, 0, 0, 375])];
            tensor<int32, [4]> var_430_end_0 = const()[name = tensor<string, []>("op_430_end_0"), val = tensor<int32, [4]>([1, 64, 1, 750])];
            tensor<bool, [4]> var_430_end_mask_0 = const()[name = tensor<string, []>("op_430_end_mask_0"), val = tensor<bool, [4]>([true, true, true, false])];
            tensor<fp16, [1, 64, 1, 375]> var_430_cast_fp16 = slice_by_index(begin = var_430_begin_0, end = var_430_end_0, end_mask = var_430_end_mask_0, x = var_218_cast_fp16)[name = tensor<string, []>("op_430_cast_fp16")];
            tensor<int32, [4]> var_437_begin_0 = const()[name = tensor<string, []>("op_437_begin_0"), val = tensor<int32, [4]>([0, 0, 0, 750])];
            tensor<int32, [4]> var_437_end_0 = const()[name = tensor<string, []>("op_437_end_0"), val = tensor<int32, [4]>([1, 64, 1, 1125])];
            tensor<bool, [4]> var_437_end_mask_0 = const()[name = tensor<string, []>("op_437_end_mask_0"), val = tensor<bool, [4]>([true, true, true, false])];
            tensor<fp16, [1, 64, 1, 375]> var_437_cast_fp16 = slice_by_index(begin = var_437_begin_0, end = var_437_end_0, end_mask = var_437_end_mask_0, x = var_218_cast_fp16)[name = tensor<string, []>("op_437_cast_fp16")];
            tensor<int32, [4]> var_444_begin_0 = const()[name = tensor<string, []>("op_444_begin_0"), val = tensor<int32, [4]>([0, 0, 0, 1125])];
            tensor<int32, [4]> var_444_end_0 = const()[name = tensor<string, []>("op_444_end_0"), val = tensor<int32, [4]>([1, 64, 1, 1500])];
            tensor<bool, [4]> var_444_end_mask_0 = const()[name = tensor<string, []>("op_444_end_mask_0"), val = tensor<bool, [4]>([true, true, true, false])];
            tensor<fp16, [1, 64, 1, 375]> var_444_cast_fp16 = slice_by_index(begin = var_444_begin_0, end = var_444_end_0, end_mask = var_444_end_mask_0, x = var_218_cast_fp16)[name = tensor<string, []>("op_444_cast_fp16")];
            tensor<int32, [4]> k_1_perm_0 = const()[name = tensor<string, []>("k_1_perm_0"), val = tensor<int32, [4]>([0, 3, 2, 1])];
            tensor<int32, [4]> var_449_begin_0 = const()[name = tensor<string, []>("op_449_begin_0"), val = tensor<int32, [4]>([0, 0, 0, 0])];
            tensor<int32, [4]> var_449_end_0 = const()[name = tensor<string, []>("op_449_end_0"), val = tensor<int32, [4]>([1, 1500, 1, 64])];
            tensor<bool, [4]> var_449_end_mask_0 = const()[name = tensor<string, []>("op_449_end_mask_0"), val = tensor<bool, [4]>([true, true, true, false])];
            tensor<fp16, [1, 1500, 1, 512]> transpose_5 = transpose(perm = k_1_perm_0, x = key_1_cast_fp16)[name = tensor<string, []>("transpose_5")];
            tensor<fp16, [1, 1500, 1, 64]> var_449_cast_fp16 = slice_by_index(begin = var_449_begin_0, end = var_449_end_0, end_mask = var_449_end_mask_0, x = transpose_5)[name = tensor<string, []>("op_449_cast_fp16")];
            tensor<int32, [4]> var_453_begin_0 = const()[name = tensor<string, []>("op_453_begin_0"), val = tensor<int32, [4]>([0, 0, 0, 64])];
            tensor<int32, [4]> var_453_end_0 = const()[name = tensor<string, []>("op_453_end_0"), val = tensor<int32, [4]>([1, 1500, 1, 128])];
            tensor<bool, [4]> var_453_end_mask_0 = const()[name = tensor<string, []>("op_453_end_mask_0"), val = tensor<bool, [4]>([true, true, true, false])];
            tensor<fp16, [1, 1500, 1, 64]> var_453_cast_fp16 = slice_by_index(begin = var_453_begin_0, end = var_453_end_0, end_mask = var_453_end_mask_0, x = transpose_5)[name = tensor<string, []>("op_453_cast_fp16")];
            tensor<int32, [4]> var_457_begin_0 = const()[name = tensor<string, []>("op_457_begin_0"), val = tensor<int32, [4]>([0, 0, 0, 128])];
            tensor<int32, [4]> var_457_end_0 = const()[name = tensor<string, []>("op_457_end_0"), val = tensor<int32, [4]>([1, 1500, 1, 192])];
            tensor<bool, [4]> var_457_end_mask_0 = const()[name = tensor<string, []>("op_457_end_mask_0"), val = tensor<bool, [4]>([true, true, true, false])];
            tensor<fp16, [1, 1500, 1, 64]> var_457_cast_fp16 = slice_by_index(begin = var_457_begin_0, end = var_457_end_0, end_mask = var_457_end_mask_0, x = transpose_5)[name = tensor<string, []>("op_457_cast_fp16")];
            tensor<int32, [4]> var_461_begin_0 = const()[name = tensor<string, []>("op_461_begin_0"), val = tensor<int32, [4]>([0, 0, 0, 192])];
            tensor<int32, [4]> var_461_end_0 = const()[name = tensor<string, []>("op_461_end_0"), val = tensor<int32, [4]>([1, 1500, 1, 256])];
            tensor<bool, [4]> var_461_end_mask_0 = const()[name = tensor<string, []>("op_461_end_mask_0"), val = tensor<bool, [4]>([true, true, true, false])];
            tensor<fp16, [1, 1500, 1, 64]> var_461_cast_fp16 = slice_by_index(begin = var_461_begin_0, end = var_461_end_0, end_mask = var_461_end_mask_0, x = transpose_5)[name = tensor<string, []>("op_461_cast_fp16")];
            tensor<int32, [4]> var_465_begin_0 = const()[name = tensor<string, []>("op_465_begin_0"), val = tensor<int32, [4]>([0, 0, 0, 256])];
            tensor<int32, [4]> var_465_end_0 = const()[name = tensor<string, []>("op_465_end_0"), val = tensor<int32, [4]>([1, 1500, 1, 320])];
            tensor<bool, [4]> var_465_end_mask_0 = const()[name = tensor<string, []>("op_465_end_mask_0"), val = tensor<bool, [4]>([true, true, true, false])];
            tensor<fp16, [1, 1500, 1, 64]> var_465_cast_fp16 = slice_by_index(begin = var_465_begin_0, end = var_465_end_0, end_mask = var_465_end_mask_0, x = transpose_5)[name = tensor<string, []>("op_465_cast_fp16")];
            tensor<int32, [4]> var_469_begin_0 = const()[name = tensor<string, []>("op_469_begin_0"), val = tensor<int32, [4]>([0, 0, 0, 320])];
            tensor<int32, [4]> var_469_end_0 = const()[name = tensor<string, []>("op_469_end_0"), val = tensor<int32, [4]>([1, 1500, 1, 384])];
            tensor<bool, [4]> var_469_end_mask_0 = const()[name = tensor<string, []>("op_469_end_mask_0"), val = tensor<bool, [4]>([true, true, true, false])];
            tensor<fp16, [1, 1500, 1, 64]> var_469_cast_fp16 = slice_by_index(begin = var_469_begin_0, end = var_469_end_0, end_mask = var_469_end_mask_0, x = transpose_5)[name = tensor<string, []>("op_469_cast_fp16")];
            tensor<int32, [4]> var_473_begin_0 = const()[name = tensor<string, []>("op_473_begin_0"), val = tensor<int32, [4]>([0, 0, 0, 384])];
            tensor<int32, [4]> var_473_end_0 = const()[name = tensor<string, []>("op_473_end_0"), val = tensor<int32, [4]>([1, 1500, 1, 448])];
            tensor<bool, [4]> var_473_end_mask_0 = const()[name = tensor<string, []>("op_473_end_mask_0"), val = tensor<bool, [4]>([true, true, true, false])];
            tensor<fp16, [1, 1500, 1, 64]> var_473_cast_fp16 = slice_by_index(begin = var_473_begin_0, end = var_473_end_0, end_mask = var_473_end_mask_0, x = transpose_5)[name = tensor<string, []>("op_473_cast_fp16")];
            tensor<int32, [4]> var_477_begin_0 = const()[name = tensor<string, []>("op_477_begin_0"), val = tensor<int32, [4]>([0, 0, 0, 448])];
            tensor<int32, [4]> var_477_end_0 = const()[name = tensor<string, []>("op_477_end_0"), val = tensor<int32, [4]>([1, 1500, 1, 512])];
            tensor<bool, [4]> var_477_end_mask_0 = const()[name = tensor<string, []>("op_477_end_mask_0"), val = tensor<bool, [4]>([true, true, true, false])];
            tensor<fp16, [1, 1500, 1, 64]> var_477_cast_fp16 = slice_by_index(begin = var_477_begin_0, end = var_477_end_0, end_mask = var_477_end_mask_0, x = transpose_5)[name = tensor<string, []>("op_477_cast_fp16")];
            tensor<int32, [4]> var_479_begin_0 = const()[name = tensor<string, []>("op_479_begin_0"), val = tensor<int32, [4]>([0, 0, 0, 0])];
            tensor<int32, [4]> var_479_end_0 = const()[name = tensor<string, []>("op_479_end_0"), val = tensor<int32, [4]>([1, 64, 1, 1500])];
            tensor<bool, [4]> var_479_end_mask_0 = const()[name = tensor<string, []>("op_479_end_mask_0"), val = tensor<bool, [4]>([true, false, true, true])];
            tensor<fp16, [1, 64, 1, 1500]> var_479_cast_fp16 = slice_by_index(begin = var_479_begin_0, end = var_479_end_0, end_mask = var_479_end_mask_0, x = value_1_cast_fp16)[name = tensor<string, []>("op_479_cast_fp16")];
            tensor<int32, [4]> var_483_begin_0 = const()[name = tensor<string, []>("op_483_begin_0"), val = tensor<int32, [4]>([0, 64, 0, 0])];
            tensor<int32, [4]> var_483_end_0 = const()[name = tensor<string, []>("op_483_end_0"), val = tensor<int32, [4]>([1, 128, 1, 1500])];
            tensor<bool, [4]> var_483_end_mask_0 = const()[name = tensor<string, []>("op_483_end_mask_0"), val = tensor<bool, [4]>([true, false, true, true])];
            tensor<fp16, [1, 64, 1, 1500]> var_483_cast_fp16 = slice_by_index(begin = var_483_begin_0, end = var_483_end_0, end_mask = var_483_end_mask_0, x = value_1_cast_fp16)[name = tensor<string, []>("op_483_cast_fp16")];
            tensor<int32, [4]> var_487_begin_0 = const()[name = tensor<string, []>("op_487_begin_0"), val = tensor<int32, [4]>([0, 128, 0, 0])];
            tensor<int32, [4]> var_487_end_0 = const()[name = tensor<string, []>("op_487_end_0"), val = tensor<int32, [4]>([1, 192, 1, 1500])];
            tensor<bool, [4]> var_487_end_mask_0 = const()[name = tensor<string, []>("op_487_end_mask_0"), val = tensor<bool, [4]>([true, false, true, true])];
            tensor<fp16, [1, 64, 1, 1500]> var_487_cast_fp16 = slice_by_index(begin = var_487_begin_0, end = var_487_end_0, end_mask = var_487_end_mask_0, x = value_1_cast_fp16)[name = tensor<string, []>("op_487_cast_fp16")];
            tensor<int32, [4]> var_491_begin_0 = const()[name = tensor<string, []>("op_491_begin_0"), val = tensor<int32, [4]>([0, 192, 0, 0])];
            tensor<int32, [4]> var_491_end_0 = const()[name = tensor<string, []>("op_491_end_0"), val = tensor<int32, [4]>([1, 256, 1, 1500])];
            tensor<bool, [4]> var_491_end_mask_0 = const()[name = tensor<string, []>("op_491_end_mask_0"), val = tensor<bool, [4]>([true, false, true, true])];
            tensor<fp16, [1, 64, 1, 1500]> var_491_cast_fp16 = slice_by_index(begin = var_491_begin_0, end = var_491_end_0, end_mask = var_491_end_mask_0, x = value_1_cast_fp16)[name = tensor<string, []>("op_491_cast_fp16")];
            tensor<int32, [4]> var_495_begin_0 = const()[name = tensor<string, []>("op_495_begin_0"), val = tensor<int32, [4]>([0, 256, 0, 0])];
            tensor<int32, [4]> var_495_end_0 = const()[name = tensor<string, []>("op_495_end_0"), val = tensor<int32, [4]>([1, 320, 1, 1500])];
            tensor<bool, [4]> var_495_end_mask_0 = const()[name = tensor<string, []>("op_495_end_mask_0"), val = tensor<bool, [4]>([true, false, true, true])];
            tensor<fp16, [1, 64, 1, 1500]> var_495_cast_fp16 = slice_by_index(begin = var_495_begin_0, end = var_495_end_0, end_mask = var_495_end_mask_0, x = value_1_cast_fp16)[name = tensor<string, []>("op_495_cast_fp16")];
            tensor<int32, [4]> var_499_begin_0 = const()[name = tensor<string, []>("op_499_begin_0"), val = tensor<int32, [4]>([0, 320, 0, 0])];
            tensor<int32, [4]> var_499_end_0 = const()[name = tensor<string, []>("op_499_end_0"), val = tensor<int32, [4]>([1, 384, 1, 1500])];
            tensor<bool, [4]> var_499_end_mask_0 = const()[name = tensor<string, []>("op_499_end_mask_0"), val = tensor<bool, [4]>([true, false, true, true])];
            tensor<fp16, [1, 64, 1, 1500]> var_499_cast_fp16 = slice_by_index(begin = var_499_begin_0, end = var_499_end_0, end_mask = var_499_end_mask_0, x = value_1_cast_fp16)[name = tensor<string, []>("op_499_cast_fp16")];
            tensor<int32, [4]> var_503_begin_0 = const()[name = tensor<string, []>("op_503_begin_0"), val = tensor<int32, [4]>([0, 384, 0, 0])];
            tensor<int32, [4]> var_503_end_0 = const()[name = tensor<string, []>("op_503_end_0"), val = tensor<int32, [4]>([1, 448, 1, 1500])];
            tensor<bool, [4]> var_503_end_mask_0 = const()[name = tensor<string, []>("op_503_end_mask_0"), val = tensor<bool, [4]>([true, false, true, true])];
            tensor<fp16, [1, 64, 1, 1500]> var_503_cast_fp16 = slice_by_index(begin = var_503_begin_0, end = var_503_end_0, end_mask = var_503_end_mask_0, x = value_1_cast_fp16)[name = tensor<string, []>("op_503_cast_fp16")];
            tensor<int32, [4]> var_507_begin_0 = const()[name = tensor<string, []>("op_507_begin_0"), val = tensor<int32, [4]>([0, 448, 0, 0])];
            tensor<int32, [4]> var_507_end_0 = const()[name = tensor<string, []>("op_507_end_0"), val = tensor<int32, [4]>([1, 512, 1, 1500])];
            tensor<bool, [4]> var_507_end_mask_0 = const()[name = tensor<string, []>("op_507_end_mask_0"), val = tensor<bool, [4]>([true, false, true, true])];
            tensor<fp16, [1, 64, 1, 1500]> var_507_cast_fp16 = slice_by_index(begin = var_507_begin_0, end = var_507_end_0, end_mask = var_507_end_mask_0, x = value_1_cast_fp16)[name = tensor<string, []>("op_507_cast_fp16")];
            tensor<string, []> var_511_equation_0 = const()[name = tensor<string, []>("op_511_equation_0"), val = tensor<string, []>("bkhc,bchq->bkhq")];
            tensor<fp16, [1, 1500, 1, 375]> var_511_cast_fp16 = einsum(equation = var_511_equation_0, values = (var_449_cast_fp16, var_227_cast_fp16))[name = tensor<string, []>("op_511_cast_fp16")];
            tensor<fp16, []> var_512_to_fp16 = const()[name = tensor<string, []>("op_512_to_fp16"), val = tensor<fp16, []>(0x1p-3)];
            tensor<fp16, [1, 1500, 1, 375]> aw_chunk_1_cast_fp16 = mul(x = var_511_cast_fp16, y = var_512_to_fp16)[name = tensor<string, []>("aw_chunk_1_cast_fp16")];
            tensor<string, []> var_515_equation_0 = const()[name = tensor<string, []>("op_515_equation_0"), val = tensor<string, []>("bkhc,bchq->bkhq")];
            tensor<fp16, [1, 1500, 1, 375]> var_515_cast_fp16 = einsum(equation = var_515_equation_0, values = (var_449_cast_fp16, var_234_cast_fp16))[name = tensor<string, []>("op_515_cast_fp16")];
            tensor<fp16, []> var_516_to_fp16 = const()[name = tensor<string, []>("op_516_to_fp16"), val = tensor<fp16, []>(0x1p-3)];
            tensor<fp16, [1, 1500, 1, 375]> aw_chunk_3_cast_fp16 = mul(x = var_515_cast_fp16, y = var_516_to_fp16)[name = tensor<string, []>("aw_chunk_3_cast_fp16")];
            tensor<string, []> var_519_equation_0 = const()[name = tensor<string, []>("op_519_equation_0"), val = tensor<string, []>("bkhc,bchq->bkhq")];
            tensor<fp16, [1, 1500, 1, 375]> var_519_cast_fp16 = einsum(equation = var_519_equation_0, values = (var_449_cast_fp16, var_241_cast_fp16))[name = tensor<string, []>("op_519_cast_fp16")];
            tensor<fp16, []> var_520_to_fp16 = const()[name = tensor<string, []>("op_520_to_fp16"), val = tensor<fp16, []>(0x1p-3)];
            tensor<fp16, [1, 1500, 1, 375]> aw_chunk_5_cast_fp16 = mul(x = var_519_cast_fp16, y = var_520_to_fp16)[name = tensor<string, []>("aw_chunk_5_cast_fp16")];
            tensor<string, []> var_523_equation_0 = const()[name = tensor<string, []>("op_523_equation_0"), val = tensor<string, []>("bkhc,bchq->bkhq")];
            tensor<fp16, [1, 1500, 1, 375]> var_523_cast_fp16 = einsum(equation = var_523_equation_0, values = (var_449_cast_fp16, var_248_cast_fp16))[name = tensor<string, []>("op_523_cast_fp16")];
            tensor<fp16, []> var_524_to_fp16 = const()[name = tensor<string, []>("op_524_to_fp16"), val = tensor<fp16, []>(0x1p-3)];
            tensor<fp16, [1, 1500, 1, 375]> aw_chunk_7_cast_fp16 = mul(x = var_523_cast_fp16, y = var_524_to_fp16)[name = tensor<string, []>("aw_chunk_7_cast_fp16")];
            tensor<string, []> var_527_equation_0 = const()[name = tensor<string, []>("op_527_equation_0"), val = tensor<string, []>("bkhc,bchq->bkhq")];
            tensor<fp16, [1, 1500, 1, 375]> var_527_cast_fp16 = einsum(equation = var_527_equation_0, values = (var_453_cast_fp16, var_255_cast_fp16))[name = tensor<string, []>("op_527_cast_fp16")];
            tensor<fp16, []> var_528_to_fp16 = const()[name = tensor<string, []>("op_528_to_fp16"), val = tensor<fp16, []>(0x1p-3)];
            tensor<fp16, [1, 1500, 1, 375]> aw_chunk_9_cast_fp16 = mul(x = var_527_cast_fp16, y = var_528_to_fp16)[name = tensor<string, []>("aw_chunk_9_cast_fp16")];
            tensor<string, []> var_531_equation_0 = const()[name = tensor<string, []>("op_531_equation_0"), val = tensor<string, []>("bkhc,bchq->bkhq")];
            tensor<fp16, [1, 1500, 1, 375]> var_531_cast_fp16 = einsum(equation = var_531_equation_0, values = (var_453_cast_fp16, var_262_cast_fp16))[name = tensor<string, []>("op_531_cast_fp16")];
            tensor<fp16, []> var_532_to_fp16 = const()[name = tensor<string, []>("op_532_to_fp16"), val = tensor<fp16, []>(0x1p-3)];
            tensor<fp16, [1, 1500, 1, 375]> aw_chunk_11_cast_fp16 = mul(x = var_531_cast_fp16, y = var_532_to_fp16)[name = tensor<string, []>("aw_chunk_11_cast_fp16")];
            tensor<string, []> var_535_equation_0 = const()[name = tensor<string, []>("op_535_equation_0"), val = tensor<string, []>("bkhc,bchq->bkhq")];
            tensor<fp16, [1, 1500, 1, 375]> var_535_cast_fp16 = einsum(equation = var_535_equation_0, values = (var_453_cast_fp16, var_269_cast_fp16))[name = tensor<string, []>("op_535_cast_fp16")];
            tensor<fp16, []> var_536_to_fp16 = const()[name = tensor<string, []>("op_536_to_fp16"), val = tensor<fp16, []>(0x1p-3)];
            tensor<fp16, [1, 1500, 1, 375]> aw_chunk_13_cast_fp16 = mul(x = var_535_cast_fp16, y = var_536_to_fp16)[name = tensor<string, []>("aw_chunk_13_cast_fp16")];
            tensor<string, []> var_539_equation_0 = const()[name = tensor<string, []>("op_539_equation_0"), val = tensor<string, []>("bkhc,bchq->bkhq")];
            tensor<fp16, [1, 1500, 1, 375]> var_539_cast_fp16 = einsum(equation = var_539_equation_0, values = (var_453_cast_fp16, var_276_cast_fp16))[name = tensor<string, []>("op_539_cast_fp16")];
            tensor<fp16, []> var_540_to_fp16 = const()[name = tensor<string, []>("op_540_to_fp16"), val = tensor<fp16, []>(0x1p-3)];
            tensor<fp16, [1, 1500, 1, 375]> aw_chunk_15_cast_fp16 = mul(x = var_539_cast_fp16, y = var_540_to_fp16)[name = tensor<string, []>("aw_chunk_15_cast_fp16")];
            tensor<string, []> var_543_equation_0 = const()[name = tensor<string, []>("op_543_equation_0"), val = tensor<string, []>("bkhc,bchq->bkhq")];
            tensor<fp16, [1, 1500, 1, 375]> var_543_cast_fp16 = einsum(equation = var_543_equation_0, values = (var_457_cast_fp16, var_283_cast_fp16))[name = tensor<string, []>("op_543_cast_fp16")];
            tensor<fp16, []> var_544_to_fp16 = const()[name = tensor<string, []>("op_544_to_fp16"), val = tensor<fp16, []>(0x1p-3)];
            tensor<fp16, [1, 1500, 1, 375]> aw_chunk_17_cast_fp16 = mul(x = var_543_cast_fp16, y = var_544_to_fp16)[name = tensor<string, []>("aw_chunk_17_cast_fp16")];
            tensor<string, []> var_547_equation_0 = const()[name = tensor<string, []>("op_547_equation_0"), val = tensor<string, []>("bkhc,bchq->bkhq")];
            tensor<fp16, [1, 1500, 1, 375]> var_547_cast_fp16 = einsum(equation = var_547_equation_0, values = (var_457_cast_fp16, var_290_cast_fp16))[name = tensor<string, []>("op_547_cast_fp16")];
            tensor<fp16, []> var_548_to_fp16 = const()[name = tensor<string, []>("op_548_to_fp16"), val = tensor<fp16, []>(0x1p-3)];
            tensor<fp16, [1, 1500, 1, 375]> aw_chunk_19_cast_fp16 = mul(x = var_547_cast_fp16, y = var_548_to_fp16)[name = tensor<string, []>("aw_chunk_19_cast_fp16")];
            tensor<string, []> var_551_equation_0 = const()[name = tensor<string, []>("op_551_equation_0"), val = tensor<string, []>("bkhc,bchq->bkhq")];
            tensor<fp16, [1, 1500, 1, 375]> var_551_cast_fp16 = einsum(equation = var_551_equation_0, values = (var_457_cast_fp16, var_297_cast_fp16))[name = tensor<string, []>("op_551_cast_fp16")];
            tensor<fp16, []> var_552_to_fp16 = const()[name = tensor<string, []>("op_552_to_fp16"), val = tensor<fp16, []>(0x1p-3)];
            tensor<fp16, [1, 1500, 1, 375]> aw_chunk_21_cast_fp16 = mul(x = var_551_cast_fp16, y = var_552_to_fp16)[name = tensor<string, []>("aw_chunk_21_cast_fp16")];
            tensor<string, []> var_555_equation_0 = const()[name = tensor<string, []>("op_555_equation_0"), val = tensor<string, []>("bkhc,bchq->bkhq")];
            tensor<fp16, [1, 1500, 1, 375]> var_555_cast_fp16 = einsum(equation = var_555_equation_0, values = (var_457_cast_fp16, var_304_cast_fp16))[name = tensor<string, []>("op_555_cast_fp16")];
            tensor<fp16, []> var_556_to_fp16 = const()[name = tensor<string, []>("op_556_to_fp16"), val = tensor<fp16, []>(0x1p-3)];
            tensor<fp16, [1, 1500, 1, 375]> aw_chunk_23_cast_fp16 = mul(x = var_555_cast_fp16, y = var_556_to_fp16)[name = tensor<string, []>("aw_chunk_23_cast_fp16")];
            tensor<string, []> var_559_equation_0 = const()[name = tensor<string, []>("op_559_equation_0"), val = tensor<string, []>("bkhc,bchq->bkhq")];
            tensor<fp16, [1, 1500, 1, 375]> var_559_cast_fp16 = einsum(equation = var_559_equation_0, values = (var_461_cast_fp16, var_311_cast_fp16))[name = tensor<string, []>("op_559_cast_fp16")];
            tensor<fp16, []> var_560_to_fp16 = const()[name = tensor<string, []>("op_560_to_fp16"), val = tensor<fp16, []>(0x1p-3)];
            tensor<fp16, [1, 1500, 1, 375]> aw_chunk_25_cast_fp16 = mul(x = var_559_cast_fp16, y = var_560_to_fp16)[name = tensor<string, []>("aw_chunk_25_cast_fp16")];
            tensor<string, []> var_563_equation_0 = const()[name = tensor<string, []>("op_563_equation_0"), val = tensor<string, []>("bkhc,bchq->bkhq")];
            tensor<fp16, [1, 1500, 1, 375]> var_563_cast_fp16 = einsum(equation = var_563_equation_0, values = (var_461_cast_fp16, var_318_cast_fp16))[name = tensor<string, []>("op_563_cast_fp16")];
            tensor<fp16, []> var_564_to_fp16 = const()[name = tensor<string, []>("op_564_to_fp16"), val = tensor<fp16, []>(0x1p-3)];
            tensor<fp16, [1, 1500, 1, 375]> aw_chunk_27_cast_fp16 = mul(x = var_563_cast_fp16, y = var_564_to_fp16)[name = tensor<string, []>("aw_chunk_27_cast_fp16")];
            tensor<string, []> var_567_equation_0 = const()[name = tensor<string, []>("op_567_equation_0"), val = tensor<string, []>("bkhc,bchq->bkhq")];
            tensor<fp16, [1, 1500, 1, 375]> var_567_cast_fp16 = einsum(equation = var_567_equation_0, values = (var_461_cast_fp16, var_325_cast_fp16))[name = tensor<string, []>("op_567_cast_fp16")];
            tensor<fp16, []> var_568_to_fp16 = const()[name = tensor<string, []>("op_568_to_fp16"), val = tensor<fp16, []>(0x1p-3)];
            tensor<fp16, [1, 1500, 1, 375]> aw_chunk_29_cast_fp16 = mul(x = var_567_cast_fp16, y = var_568_to_fp16)[name = tensor<string, []>("aw_chunk_29_cast_fp16")];
            tensor<string, []> var_571_equation_0 = const()[name = tensor<string, []>("op_571_equation_0"), val = tensor<string, []>("bkhc,bchq->bkhq")];
            tensor<fp16, [1, 1500, 1, 375]> var_571_cast_fp16 = einsum(equation = var_571_equation_0, values = (var_461_cast_fp16, var_332_cast_fp16))[name = tensor<string, []>("op_571_cast_fp16")];
            tensor<fp16, []> var_572_to_fp16 = const()[name = tensor<string, []>("op_572_to_fp16"), val = tensor<fp16, []>(0x1p-3)];
            tensor<fp16, [1, 1500, 1, 375]> aw_chunk_31_cast_fp16 = mul(x = var_571_cast_fp16, y = var_572_to_fp16)[name = tensor<string, []>("aw_chunk_31_cast_fp16")];
            tensor<string, []> var_575_equation_0 = const()[name = tensor<string, []>("op_575_equation_0"), val = tensor<string, []>("bkhc,bchq->bkhq")];
            tensor<fp16, [1, 1500, 1, 375]> var_575_cast_fp16 = einsum(equation = var_575_equation_0, values = (var_465_cast_fp16, var_339_cast_fp16))[name = tensor<string, []>("op_575_cast_fp16")];
            tensor<fp16, []> var_576_to_fp16 = const()[name = tensor<string, []>("op_576_to_fp16"), val = tensor<fp16, []>(0x1p-3)];
            tensor<fp16, [1, 1500, 1, 375]> aw_chunk_33_cast_fp16 = mul(x = var_575_cast_fp16, y = var_576_to_fp16)[name = tensor<string, []>("aw_chunk_33_cast_fp16")];
            tensor<string, []> var_579_equation_0 = const()[name = tensor<string, []>("op_579_equation_0"), val = tensor<string, []>("bkhc,bchq->bkhq")];
            tensor<fp16, [1, 1500, 1, 375]> var_579_cast_fp16 = einsum(equation = var_579_equation_0, values = (var_465_cast_fp16, var_346_cast_fp16))[name = tensor<string, []>("op_579_cast_fp16")];
            tensor<fp16, []> var_580_to_fp16 = const()[name = tensor<string, []>("op_580_to_fp16"), val = tensor<fp16, []>(0x1p-3)];
            tensor<fp16, [1, 1500, 1, 375]> aw_chunk_35_cast_fp16 = mul(x = var_579_cast_fp16, y = var_580_to_fp16)[name = tensor<string, []>("aw_chunk_35_cast_fp16")];
            tensor<string, []> var_583_equation_0 = const()[name = tensor<string, []>("op_583_equation_0"), val = tensor<string, []>("bkhc,bchq->bkhq")];
            tensor<fp16, [1, 1500, 1, 375]> var_583_cast_fp16 = einsum(equation = var_583_equation_0, values = (var_465_cast_fp16, var_353_cast_fp16))[name = tensor<string, []>("op_583_cast_fp16")];
            tensor<fp16, []> var_584_to_fp16 = const()[name = tensor<string, []>("op_584_to_fp16"), val = tensor<fp16, []>(0x1p-3)];
            tensor<fp16, [1, 1500, 1, 375]> aw_chunk_37_cast_fp16 = mul(x = var_583_cast_fp16, y = var_584_to_fp16)[name = tensor<string, []>("aw_chunk_37_cast_fp16")];
            tensor<string, []> var_587_equation_0 = const()[name = tensor<string, []>("op_587_equation_0"), val = tensor<string, []>("bkhc,bchq->bkhq")];
            tensor<fp16, [1, 1500, 1, 375]> var_587_cast_fp16 = einsum(equation = var_587_equation_0, values = (var_465_cast_fp16, var_360_cast_fp16))[name = tensor<string, []>("op_587_cast_fp16")];
            tensor<fp16, []> var_588_to_fp16 = const()[name = tensor<string, []>("op_588_to_fp16"), val = tensor<fp16, []>(0x1p-3)];
            tensor<fp16, [1, 1500, 1, 375]> aw_chunk_39_cast_fp16 = mul(x = var_587_cast_fp16, y = var_588_to_fp16)[name = tensor<string, []>("aw_chunk_39_cast_fp16")];
            tensor<string, []> var_591_equation_0 = const()[name = tensor<string, []>("op_591_equation_0"), val = tensor<string, []>("bkhc,bchq->bkhq")];
            tensor<fp16, [1, 1500, 1, 375]> var_591_cast_fp16 = einsum(equation = var_591_equation_0, values = (var_469_cast_fp16, var_367_cast_fp16))[name = tensor<string, []>("op_591_cast_fp16")];
            tensor<fp16, []> var_592_to_fp16 = const()[name = tensor<string, []>("op_592_to_fp16"), val = tensor<fp16, []>(0x1p-3)];
            tensor<fp16, [1, 1500, 1, 375]> aw_chunk_41_cast_fp16 = mul(x = var_591_cast_fp16, y = var_592_to_fp16)[name = tensor<string, []>("aw_chunk_41_cast_fp16")];
            tensor<string, []> var_595_equation_0 = const()[name = tensor<string, []>("op_595_equation_0"), val = tensor<string, []>("bkhc,bchq->bkhq")];
            tensor<fp16, [1, 1500, 1, 375]> var_595_cast_fp16 = einsum(equation = var_595_equation_0, values = (var_469_cast_fp16, var_374_cast_fp16))[name = tensor<string, []>("op_595_cast_fp16")];
            tensor<fp16, []> var_596_to_fp16 = const()[name = tensor<string, []>("op_596_to_fp16"), val = tensor<fp16, []>(0x1p-3)];
            tensor<fp16, [1, 1500, 1, 375]> aw_chunk_43_cast_fp16 = mul(x = var_595_cast_fp16, y = var_596_to_fp16)[name = tensor<string, []>("aw_chunk_43_cast_fp16")];
            tensor<string, []> var_599_equation_0 = const()[name = tensor<string, []>("op_599_equation_0"), val = tensor<string, []>("bkhc,bchq->bkhq")];
            tensor<fp16, [1, 1500, 1, 375]> var_599_cast_fp16 = einsum(equation = var_599_equation_0, values = (var_469_cast_fp16, var_381_cast_fp16))[name = tensor<string, []>("op_599_cast_fp16")];
            tensor<fp16, []> var_600_to_fp16 = const()[name = tensor<string, []>("op_600_to_fp16"), val = tensor<fp16, []>(0x1p-3)];
            tensor<fp16, [1, 1500, 1, 375]> aw_chunk_45_cast_fp16 = mul(x = var_599_cast_fp16, y = var_600_to_fp16)[name = tensor<string, []>("aw_chunk_45_cast_fp16")];
            tensor<string, []> var_603_equation_0 = const()[name = tensor<string, []>("op_603_equation_0"), val = tensor<string, []>("bkhc,bchq->bkhq")];
            tensor<fp16, [1, 1500, 1, 375]> var_603_cast_fp16 = einsum(equation = var_603_equation_0, values = (var_469_cast_fp16, var_388_cast_fp16))[name = tensor<string, []>("op_603_cast_fp16")];
            tensor<fp16, []> var_604_to_fp16 = const()[name = tensor<string, []>("op_604_to_fp16"), val = tensor<fp16, []>(0x1p-3)];
            tensor<fp16, [1, 1500, 1, 375]> aw_chunk_47_cast_fp16 = mul(x = var_603_cast_fp16, y = var_604_to_fp16)[name = tensor<string, []>("aw_chunk_47_cast_fp16")];
            tensor<string, []> var_607_equation_0 = const()[name = tensor<string, []>("op_607_equation_0"), val = tensor<string, []>("bkhc,bchq->bkhq")];
            tensor<fp16, [1, 1500, 1, 375]> var_607_cast_fp16 = einsum(equation = var_607_equation_0, values = (var_473_cast_fp16, var_395_cast_fp16))[name = tensor<string, []>("op_607_cast_fp16")];
            tensor<fp16, []> var_608_to_fp16 = const()[name = tensor<string, []>("op_608_to_fp16"), val = tensor<fp16, []>(0x1p-3)];
            tensor<fp16, [1, 1500, 1, 375]> aw_chunk_49_cast_fp16 = mul(x = var_607_cast_fp16, y = var_608_to_fp16)[name = tensor<string, []>("aw_chunk_49_cast_fp16")];
            tensor<string, []> var_611_equation_0 = const()[name = tensor<string, []>("op_611_equation_0"), val = tensor<string, []>("bkhc,bchq->bkhq")];
            tensor<fp16, [1, 1500, 1, 375]> var_611_cast_fp16 = einsum(equation = var_611_equation_0, values = (var_473_cast_fp16, var_402_cast_fp16))[name = tensor<string, []>("op_611_cast_fp16")];
            tensor<fp16, []> var_612_to_fp16 = const()[name = tensor<string, []>("op_612_to_fp16"), val = tensor<fp16, []>(0x1p-3)];
            tensor<fp16, [1, 1500, 1, 375]> aw_chunk_51_cast_fp16 = mul(x = var_611_cast_fp16, y = var_612_to_fp16)[name = tensor<string, []>("aw_chunk_51_cast_fp16")];
            tensor<string, []> var_615_equation_0 = const()[name = tensor<string, []>("op_615_equation_0"), val = tensor<string, []>("bkhc,bchq->bkhq")];
            tensor<fp16, [1, 1500, 1, 375]> var_615_cast_fp16 = einsum(equation = var_615_equation_0, values = (var_473_cast_fp16, var_409_cast_fp16))[name = tensor<string, []>("op_615_cast_fp16")];
            tensor<fp16, []> var_616_to_fp16 = const()[name = tensor<string, []>("op_616_to_fp16"), val = tensor<fp16, []>(0x1p-3)];
            tensor<fp16, [1, 1500, 1, 375]> aw_chunk_53_cast_fp16 = mul(x = var_615_cast_fp16, y = var_616_to_fp16)[name = tensor<string, []>("aw_chunk_53_cast_fp16")];
            tensor<string, []> var_619_equation_0 = const()[name = tensor<string, []>("op_619_equation_0"), val = tensor<string, []>("bkhc,bchq->bkhq")];
            tensor<fp16, [1, 1500, 1, 375]> var_619_cast_fp16 = einsum(equation = var_619_equation_0, values = (var_473_cast_fp16, var_416_cast_fp16))[name = tensor<string, []>("op_619_cast_fp16")];
            tensor<fp16, []> var_620_to_fp16 = const()[name = tensor<string, []>("op_620_to_fp16"), val = tensor<fp16, []>(0x1p-3)];
            tensor<fp16, [1, 1500, 1, 375]> aw_chunk_55_cast_fp16 = mul(x = var_619_cast_fp16, y = var_620_to_fp16)[name = tensor<string, []>("aw_chunk_55_cast_fp16")];
            tensor<string, []> var_623_equation_0 = const()[name = tensor<string, []>("op_623_equation_0"), val = tensor<string, []>("bkhc,bchq->bkhq")];
            tensor<fp16, [1, 1500, 1, 375]> var_623_cast_fp16 = einsum(equation = var_623_equation_0, values = (var_477_cast_fp16, var_423_cast_fp16))[name = tensor<string, []>("op_623_cast_fp16")];
            tensor<fp16, []> var_624_to_fp16 = const()[name = tensor<string, []>("op_624_to_fp16"), val = tensor<fp16, []>(0x1p-3)];
            tensor<fp16, [1, 1500, 1, 375]> aw_chunk_57_cast_fp16 = mul(x = var_623_cast_fp16, y = var_624_to_fp16)[name = tensor<string, []>("aw_chunk_57_cast_fp16")];
            tensor<string, []> var_627_equation_0 = const()[name = tensor<string, []>("op_627_equation_0"), val = tensor<string, []>("bkhc,bchq->bkhq")];
            tensor<fp16, [1, 1500, 1, 375]> var_627_cast_fp16 = einsum(equation = var_627_equation_0, values = (var_477_cast_fp16, var_430_cast_fp16))[name = tensor<string, []>("op_627_cast_fp16")];
            tensor<fp16, []> var_628_to_fp16 = const()[name = tensor<string, []>("op_628_to_fp16"), val = tensor<fp16, []>(0x1p-3)];
            tensor<fp16, [1, 1500, 1, 375]> aw_chunk_59_cast_fp16 = mul(x = var_627_cast_fp16, y = var_628_to_fp16)[name = tensor<string, []>("aw_chunk_59_cast_fp16")];
            tensor<string, []> var_631_equation_0 = const()[name = tensor<string, []>("op_631_equation_0"), val = tensor<string, []>("bkhc,bchq->bkhq")];
            tensor<fp16, [1, 1500, 1, 375]> var_631_cast_fp16 = einsum(equation = var_631_equation_0, values = (var_477_cast_fp16, var_437_cast_fp16))[name = tensor<string, []>("op_631_cast_fp16")];
            tensor<fp16, []> var_632_to_fp16 = const()[name = tensor<string, []>("op_632_to_fp16"), val = tensor<fp16, []>(0x1p-3)];
            tensor<fp16, [1, 1500, 1, 375]> aw_chunk_61_cast_fp16 = mul(x = var_631_cast_fp16, y = var_632_to_fp16)[name = tensor<string, []>("aw_chunk_61_cast_fp16")];
            tensor<string, []> var_635_equation_0 = const()[name = tensor<string, []>("op_635_equation_0"), val = tensor<string, []>("bkhc,bchq->bkhq")];
            tensor<fp16, [1, 1500, 1, 375]> var_635_cast_fp16 = einsum(equation = var_635_equation_0, values = (var_477_cast_fp16, var_444_cast_fp16))[name = tensor<string, []>("op_635_cast_fp16")];
            tensor<fp16, []> var_636_to_fp16 = const()[name = tensor<string, []>("op_636_to_fp16"), val = tensor<fp16, []>(0x1p-3)];
            tensor<fp16, [1, 1500, 1, 375]> aw_chunk_63_cast_fp16 = mul(x = var_635_cast_fp16, y = var_636_to_fp16)[name = tensor<string, []>("aw_chunk_63_cast_fp16")];
            tensor<fp16, [1, 1500, 1, 375]> var_638_cast_fp16 = softmax(axis = var_135, x = aw_chunk_1_cast_fp16)[name = tensor<string, []>("op_638_cast_fp16")];
            tensor<fp16, [1, 1500, 1, 375]> var_639_cast_fp16 = softmax(axis = var_135, x = aw_chunk_3_cast_fp16)[name = tensor<string, []>("op_639_cast_fp16")];
            tensor<fp16, [1, 1500, 1, 375]> var_640_cast_fp16 = softmax(axis = var_135, x = aw_chunk_5_cast_fp16)[name = tensor<string, []>("op_640_cast_fp16")];
            tensor<fp16, [1, 1500, 1, 375]> var_641_cast_fp16 = softmax(axis = var_135, x = aw_chunk_7_cast_fp16)[name = tensor<string, []>("op_641_cast_fp16")];
            tensor<fp16, [1, 1500, 1, 375]> var_642_cast_fp16 = softmax(axis = var_135, x = aw_chunk_9_cast_fp16)[name = tensor<string, []>("op_642_cast_fp16")];
            tensor<fp16, [1, 1500, 1, 375]> var_643_cast_fp16 = softmax(axis = var_135, x = aw_chunk_11_cast_fp16)[name = tensor<string, []>("op_643_cast_fp16")];
            tensor<fp16, [1, 1500, 1, 375]> var_644_cast_fp16 = softmax(axis = var_135, x = aw_chunk_13_cast_fp16)[name = tensor<string, []>("op_644_cast_fp16")];
            tensor<fp16, [1, 1500, 1, 375]> var_645_cast_fp16 = softmax(axis = var_135, x = aw_chunk_15_cast_fp16)[name = tensor<string, []>("op_645_cast_fp16")];
            tensor<fp16, [1, 1500, 1, 375]> var_646_cast_fp16 = softmax(axis = var_135, x = aw_chunk_17_cast_fp16)[name = tensor<string, []>("op_646_cast_fp16")];
            tensor<fp16, [1, 1500, 1, 375]> var_647_cast_fp16 = softmax(axis = var_135, x = aw_chunk_19_cast_fp16)[name = tensor<string, []>("op_647_cast_fp16")];
            tensor<fp16, [1, 1500, 1, 375]> var_648_cast_fp16 = softmax(axis = var_135, x = aw_chunk_21_cast_fp16)[name = tensor<string, []>("op_648_cast_fp16")];
            tensor<fp16, [1, 1500, 1, 375]> var_649_cast_fp16 = softmax(axis = var_135, x = aw_chunk_23_cast_fp16)[name = tensor<string, []>("op_649_cast_fp16")];
            tensor<fp16, [1, 1500, 1, 375]> var_650_cast_fp16 = softmax(axis = var_135, x = aw_chunk_25_cast_fp16)[name = tensor<string, []>("op_650_cast_fp16")];
            tensor<fp16, [1, 1500, 1, 375]> var_651_cast_fp16 = softmax(axis = var_135, x = aw_chunk_27_cast_fp16)[name = tensor<string, []>("op_651_cast_fp16")];
            tensor<fp16, [1, 1500, 1, 375]> var_652_cast_fp16 = softmax(axis = var_135, x = aw_chunk_29_cast_fp16)[name = tensor<string, []>("op_652_cast_fp16")];
            tensor<fp16, [1, 1500, 1, 375]> var_653_cast_fp16 = softmax(axis = var_135, x = aw_chunk_31_cast_fp16)[name = tensor<string, []>("op_653_cast_fp16")];
            tensor<fp16, [1, 1500, 1, 375]> var_654_cast_fp16 = softmax(axis = var_135, x = aw_chunk_33_cast_fp16)[name = tensor<string, []>("op_654_cast_fp16")];
            tensor<fp16, [1, 1500, 1, 375]> var_655_cast_fp16 = softmax(axis = var_135, x = aw_chunk_35_cast_fp16)[name = tensor<string, []>("op_655_cast_fp16")];
            tensor<fp16, [1, 1500, 1, 375]> var_656_cast_fp16 = softmax(axis = var_135, x = aw_chunk_37_cast_fp16)[name = tensor<string, []>("op_656_cast_fp16")];
            tensor<fp16, [1, 1500, 1, 375]> var_657_cast_fp16 = softmax(axis = var_135, x = aw_chunk_39_cast_fp16)[name = tensor<string, []>("op_657_cast_fp16")];
            tensor<fp16, [1, 1500, 1, 375]> var_658_cast_fp16 = softmax(axis = var_135, x = aw_chunk_41_cast_fp16)[name = tensor<string, []>("op_658_cast_fp16")];
            tensor<fp16, [1, 1500, 1, 375]> var_659_cast_fp16 = softmax(axis = var_135, x = aw_chunk_43_cast_fp16)[name = tensor<string, []>("op_659_cast_fp16")];
            tensor<fp16, [1, 1500, 1, 375]> var_660_cast_fp16 = softmax(axis = var_135, x = aw_chunk_45_cast_fp16)[name = tensor<string, []>("op_660_cast_fp16")];
            tensor<fp16, [1, 1500, 1, 375]> var_661_cast_fp16 = softmax(axis = var_135, x = aw_chunk_47_cast_fp16)[name = tensor<string, []>("op_661_cast_fp16")];
            tensor<fp16, [1, 1500, 1, 375]> var_662_cast_fp16 = softmax(axis = var_135, x = aw_chunk_49_cast_fp16)[name = tensor<string, []>("op_662_cast_fp16")];
            tensor<fp16, [1, 1500, 1, 375]> var_663_cast_fp16 = softmax(axis = var_135, x = aw_chunk_51_cast_fp16)[name = tensor<string, []>("op_663_cast_fp16")];
            tensor<fp16, [1, 1500, 1, 375]> var_664_cast_fp16 = softmax(axis = var_135, x = aw_chunk_53_cast_fp16)[name = tensor<string, []>("op_664_cast_fp16")];
            tensor<fp16, [1, 1500, 1, 375]> var_665_cast_fp16 = softmax(axis = var_135, x = aw_chunk_55_cast_fp16)[name = tensor<string, []>("op_665_cast_fp16")];
            tensor<fp16, [1, 1500, 1, 375]> var_666_cast_fp16 = softmax(axis = var_135, x = aw_chunk_57_cast_fp16)[name = tensor<string, []>("op_666_cast_fp16")];
            tensor<fp16, [1, 1500, 1, 375]> var_667_cast_fp16 = softmax(axis = var_135, x = aw_chunk_59_cast_fp16)[name = tensor<string, []>("op_667_cast_fp16")];
            tensor<fp16, [1, 1500, 1, 375]> var_668_cast_fp16 = softmax(axis = var_135, x = aw_chunk_61_cast_fp16)[name = tensor<string, []>("op_668_cast_fp16")];
            tensor<fp16, [1, 1500, 1, 375]> var_669_cast_fp16 = softmax(axis = var_135, x = aw_chunk_63_cast_fp16)[name = tensor<string, []>("op_669_cast_fp16")];
            tensor<string, []> var_671_equation_0 = const()[name = tensor<string, []>("op_671_equation_0"), val = tensor<string, []>("bchk,bkhq->bchq")];
            tensor<fp16, [1, 64, 1, 375]> var_671_cast_fp16 = einsum(equation = var_671_equation_0, values = (var_479_cast_fp16, var_638_cast_fp16))[name = tensor<string, []>("op_671_cast_fp16")];
            tensor<string, []> var_673_equation_0 = const()[name = tensor<string, []>("op_673_equation_0"), val = tensor<string, []>("bchk,bkhq->bchq")];
            tensor<fp16, [1, 64, 1, 375]> var_673_cast_fp16 = einsum(equation = var_673_equation_0, values = (var_479_cast_fp16, var_639_cast_fp16))[name = tensor<string, []>("op_673_cast_fp16")];
            tensor<string, []> var_675_equation_0 = const()[name = tensor<string, []>("op_675_equation_0"), val = tensor<string, []>("bchk,bkhq->bchq")];
            tensor<fp16, [1, 64, 1, 375]> var_675_cast_fp16 = einsum(equation = var_675_equation_0, values = (var_479_cast_fp16, var_640_cast_fp16))[name = tensor<string, []>("op_675_cast_fp16")];
            tensor<string, []> var_677_equation_0 = const()[name = tensor<string, []>("op_677_equation_0"), val = tensor<string, []>("bchk,bkhq->bchq")];
            tensor<fp16, [1, 64, 1, 375]> var_677_cast_fp16 = einsum(equation = var_677_equation_0, values = (var_479_cast_fp16, var_641_cast_fp16))[name = tensor<string, []>("op_677_cast_fp16")];
            tensor<string, []> var_679_equation_0 = const()[name = tensor<string, []>("op_679_equation_0"), val = tensor<string, []>("bchk,bkhq->bchq")];
            tensor<fp16, [1, 64, 1, 375]> var_679_cast_fp16 = einsum(equation = var_679_equation_0, values = (var_483_cast_fp16, var_642_cast_fp16))[name = tensor<string, []>("op_679_cast_fp16")];
            tensor<string, []> var_681_equation_0 = const()[name = tensor<string, []>("op_681_equation_0"), val = tensor<string, []>("bchk,bkhq->bchq")];
            tensor<fp16, [1, 64, 1, 375]> var_681_cast_fp16 = einsum(equation = var_681_equation_0, values = (var_483_cast_fp16, var_643_cast_fp16))[name = tensor<string, []>("op_681_cast_fp16")];
            tensor<string, []> var_683_equation_0 = const()[name = tensor<string, []>("op_683_equation_0"), val = tensor<string, []>("bchk,bkhq->bchq")];
            tensor<fp16, [1, 64, 1, 375]> var_683_cast_fp16 = einsum(equation = var_683_equation_0, values = (var_483_cast_fp16, var_644_cast_fp16))[name = tensor<string, []>("op_683_cast_fp16")];
            tensor<string, []> var_685_equation_0 = const()[name = tensor<string, []>("op_685_equation_0"), val = tensor<string, []>("bchk,bkhq->bchq")];
            tensor<fp16, [1, 64, 1, 375]> var_685_cast_fp16 = einsum(equation = var_685_equation_0, values = (var_483_cast_fp16, var_645_cast_fp16))[name = tensor<string, []>("op_685_cast_fp16")];
            tensor<string, []> var_687_equation_0 = const()[name = tensor<string, []>("op_687_equation_0"), val = tensor<string, []>("bchk,bkhq->bchq")];
            tensor<fp16, [1, 64, 1, 375]> var_687_cast_fp16 = einsum(equation = var_687_equation_0, values = (var_487_cast_fp16, var_646_cast_fp16))[name = tensor<string, []>("op_687_cast_fp16")];
            tensor<string, []> var_689_equation_0 = const()[name = tensor<string, []>("op_689_equation_0"), val = tensor<string, []>("bchk,bkhq->bchq")];
            tensor<fp16, [1, 64, 1, 375]> var_689_cast_fp16 = einsum(equation = var_689_equation_0, values = (var_487_cast_fp16, var_647_cast_fp16))[name = tensor<string, []>("op_689_cast_fp16")];
            tensor<string, []> var_691_equation_0 = const()[name = tensor<string, []>("op_691_equation_0"), val = tensor<string, []>("bchk,bkhq->bchq")];
            tensor<fp16, [1, 64, 1, 375]> var_691_cast_fp16 = einsum(equation = var_691_equation_0, values = (var_487_cast_fp16, var_648_cast_fp16))[name = tensor<string, []>("op_691_cast_fp16")];
            tensor<string, []> var_693_equation_0 = const()[name = tensor<string, []>("op_693_equation_0"), val = tensor<string, []>("bchk,bkhq->bchq")];
            tensor<fp16, [1, 64, 1, 375]> var_693_cast_fp16 = einsum(equation = var_693_equation_0, values = (var_487_cast_fp16, var_649_cast_fp16))[name = tensor<string, []>("op_693_cast_fp16")];
            tensor<string, []> var_695_equation_0 = const()[name = tensor<string, []>("op_695_equation_0"), val = tensor<string, []>("bchk,bkhq->bchq")];
            tensor<fp16, [1, 64, 1, 375]> var_695_cast_fp16 = einsum(equation = var_695_equation_0, values = (var_491_cast_fp16, var_650_cast_fp16))[name = tensor<string, []>("op_695_cast_fp16")];
            tensor<string, []> var_697_equation_0 = const()[name = tensor<string, []>("op_697_equation_0"), val = tensor<string, []>("bchk,bkhq->bchq")];
            tensor<fp16, [1, 64, 1, 375]> var_697_cast_fp16 = einsum(equation = var_697_equation_0, values = (var_491_cast_fp16, var_651_cast_fp16))[name = tensor<string, []>("op_697_cast_fp16")];
            tensor<string, []> var_699_equation_0 = const()[name = tensor<string, []>("op_699_equation_0"), val = tensor<string, []>("bchk,bkhq->bchq")];
            tensor<fp16, [1, 64, 1, 375]> var_699_cast_fp16 = einsum(equation = var_699_equation_0, values = (var_491_cast_fp16, var_652_cast_fp16))[name = tensor<string, []>("op_699_cast_fp16")];
            tensor<string, []> var_701_equation_0 = const()[name = tensor<string, []>("op_701_equation_0"), val = tensor<string, []>("bchk,bkhq->bchq")];
            tensor<fp16, [1, 64, 1, 375]> var_701_cast_fp16 = einsum(equation = var_701_equation_0, values = (var_491_cast_fp16, var_653_cast_fp16))[name = tensor<string, []>("op_701_cast_fp16")];
            tensor<string, []> var_703_equation_0 = const()[name = tensor<string, []>("op_703_equation_0"), val = tensor<string, []>("bchk,bkhq->bchq")];
            tensor<fp16, [1, 64, 1, 375]> var_703_cast_fp16 = einsum(equation = var_703_equation_0, values = (var_495_cast_fp16, var_654_cast_fp16))[name = tensor<string, []>("op_703_cast_fp16")];
            tensor<string, []> var_705_equation_0 = const()[name = tensor<string, []>("op_705_equation_0"), val = tensor<string, []>("bchk,bkhq->bchq")];
            tensor<fp16, [1, 64, 1, 375]> var_705_cast_fp16 = einsum(equation = var_705_equation_0, values = (var_495_cast_fp16, var_655_cast_fp16))[name = tensor<string, []>("op_705_cast_fp16")];
            tensor<string, []> var_707_equation_0 = const()[name = tensor<string, []>("op_707_equation_0"), val = tensor<string, []>("bchk,bkhq->bchq")];
            tensor<fp16, [1, 64, 1, 375]> var_707_cast_fp16 = einsum(equation = var_707_equation_0, values = (var_495_cast_fp16, var_656_cast_fp16))[name = tensor<string, []>("op_707_cast_fp16")];
            tensor<string, []> var_709_equation_0 = const()[name = tensor<string, []>("op_709_equation_0"), val = tensor<string, []>("bchk,bkhq->bchq")];
            tensor<fp16, [1, 64, 1, 375]> var_709_cast_fp16 = einsum(equation = var_709_equation_0, values = (var_495_cast_fp16, var_657_cast_fp16))[name = tensor<string, []>("op_709_cast_fp16")];
            tensor<string, []> var_711_equation_0 = const()[name = tensor<string, []>("op_711_equation_0"), val = tensor<string, []>("bchk,bkhq->bchq")];
            tensor<fp16, [1, 64, 1, 375]> var_711_cast_fp16 = einsum(equation = var_711_equation_0, values = (var_499_cast_fp16, var_658_cast_fp16))[name = tensor<string, []>("op_711_cast_fp16")];
            tensor<string, []> var_713_equation_0 = const()[name = tensor<string, []>("op_713_equation_0"), val = tensor<string, []>("bchk,bkhq->bchq")];
            tensor<fp16, [1, 64, 1, 375]> var_713_cast_fp16 = einsum(equation = var_713_equation_0, values = (var_499_cast_fp16, var_659_cast_fp16))[name = tensor<string, []>("op_713_cast_fp16")];
            tensor<string, []> var_715_equation_0 = const()[name = tensor<string, []>("op_715_equation_0"), val = tensor<string, []>("bchk,bkhq->bchq")];
            tensor<fp16, [1, 64, 1, 375]> var_715_cast_fp16 = einsum(equation = var_715_equation_0, values = (var_499_cast_fp16, var_660_cast_fp16))[name = tensor<string, []>("op_715_cast_fp16")];
            tensor<string, []> var_717_equation_0 = const()[name = tensor<string, []>("op_717_equation_0"), val = tensor<string, []>("bchk,bkhq->bchq")];
            tensor<fp16, [1, 64, 1, 375]> var_717_cast_fp16 = einsum(equation = var_717_equation_0, values = (var_499_cast_fp16, var_661_cast_fp16))[name = tensor<string, []>("op_717_cast_fp16")];
            tensor<string, []> var_719_equation_0 = const()[name = tensor<string, []>("op_719_equation_0"), val = tensor<string, []>("bchk,bkhq->bchq")];
            tensor<fp16, [1, 64, 1, 375]> var_719_cast_fp16 = einsum(equation = var_719_equation_0, values = (var_503_cast_fp16, var_662_cast_fp16))[name = tensor<string, []>("op_719_cast_fp16")];
            tensor<string, []> var_721_equation_0 = const()[name = tensor<string, []>("op_721_equation_0"), val = tensor<string, []>("bchk,bkhq->bchq")];
            tensor<fp16, [1, 64, 1, 375]> var_721_cast_fp16 = einsum(equation = var_721_equation_0, values = (var_503_cast_fp16, var_663_cast_fp16))[name = tensor<string, []>("op_721_cast_fp16")];
            tensor<string, []> var_723_equation_0 = const()[name = tensor<string, []>("op_723_equation_0"), val = tensor<string, []>("bchk,bkhq->bchq")];
            tensor<fp16, [1, 64, 1, 375]> var_723_cast_fp16 = einsum(equation = var_723_equation_0, values = (var_503_cast_fp16, var_664_cast_fp16))[name = tensor<string, []>("op_723_cast_fp16")];
            tensor<string, []> var_725_equation_0 = const()[name = tensor<string, []>("op_725_equation_0"), val = tensor<string, []>("bchk,bkhq->bchq")];
            tensor<fp16, [1, 64, 1, 375]> var_725_cast_fp16 = einsum(equation = var_725_equation_0, values = (var_503_cast_fp16, var_665_cast_fp16))[name = tensor<string, []>("op_725_cast_fp16")];
            tensor<string, []> var_727_equation_0 = const()[name = tensor<string, []>("op_727_equation_0"), val = tensor<string, []>("bchk,bkhq->bchq")];
            tensor<fp16, [1, 64, 1, 375]> var_727_cast_fp16 = einsum(equation = var_727_equation_0, values = (var_507_cast_fp16, var_666_cast_fp16))[name = tensor<string, []>("op_727_cast_fp16")];
            tensor<string, []> var_729_equation_0 = const()[name = tensor<string, []>("op_729_equation_0"), val = tensor<string, []>("bchk,bkhq->bchq")];
            tensor<fp16, [1, 64, 1, 375]> var_729_cast_fp16 = einsum(equation = var_729_equation_0, values = (var_507_cast_fp16, var_667_cast_fp16))[name = tensor<string, []>("op_729_cast_fp16")];
            tensor<string, []> var_731_equation_0 = const()[name = tensor<string, []>("op_731_equation_0"), val = tensor<string, []>("bchk,bkhq->bchq")];
            tensor<fp16, [1, 64, 1, 375]> var_731_cast_fp16 = einsum(equation = var_731_equation_0, values = (var_507_cast_fp16, var_668_cast_fp16))[name = tensor<string, []>("op_731_cast_fp16")];
            tensor<string, []> var_733_equation_0 = const()[name = tensor<string, []>("op_733_equation_0"), val = tensor<string, []>("bchk,bkhq->bchq")];
            tensor<fp16, [1, 64, 1, 375]> var_733_cast_fp16 = einsum(equation = var_733_equation_0, values = (var_507_cast_fp16, var_669_cast_fp16))[name = tensor<string, []>("op_733_cast_fp16")];
            tensor<bool, []> var_735_interleave_0 = const()[name = tensor<string, []>("op_735_interleave_0"), val = tensor<bool, []>(false)];
            tensor<fp16, [1, 64, 1, 1500]> var_735_cast_fp16 = concat(axis = var_122, interleave = var_735_interleave_0, values = (var_671_cast_fp16, var_673_cast_fp16, var_675_cast_fp16, var_677_cast_fp16))[name = tensor<string, []>("op_735_cast_fp16")];
            tensor<bool, []> var_737_interleave_0 = const()[name = tensor<string, []>("op_737_interleave_0"), val = tensor<bool, []>(false)];
            tensor<fp16, [1, 64, 1, 1500]> var_737_cast_fp16 = concat(axis = var_122, interleave = var_737_interleave_0, values = (var_679_cast_fp16, var_681_cast_fp16, var_683_cast_fp16, var_685_cast_fp16))[name = tensor<string, []>("op_737_cast_fp16")];
            tensor<bool, []> var_739_interleave_0 = const()[name = tensor<string, []>("op_739_interleave_0"), val = tensor<bool, []>(false)];
            tensor<fp16, [1, 64, 1, 1500]> var_739_cast_fp16 = concat(axis = var_122, interleave = var_739_interleave_0, values = (var_687_cast_fp16, var_689_cast_fp16, var_691_cast_fp16, var_693_cast_fp16))[name = tensor<string, []>("op_739_cast_fp16")];
            tensor<bool, []> var_741_interleave_0 = const()[name = tensor<string, []>("op_741_interleave_0"), val = tensor<bool, []>(false)];
            tensor<fp16, [1, 64, 1, 1500]> var_741_cast_fp16 = concat(axis = var_122, interleave = var_741_interleave_0, values = (var_695_cast_fp16, var_697_cast_fp16, var_699_cast_fp16, var_701_cast_fp16))[name = tensor<string, []>("op_741_cast_fp16")];
            tensor<bool, []> var_743_interleave_0 = const()[name = tensor<string, []>("op_743_interleave_0"), val = tensor<bool, []>(false)];
            tensor<fp16, [1, 64, 1, 1500]> var_743_cast_fp16 = concat(axis = var_122, interleave = var_743_interleave_0, values = (var_703_cast_fp16, var_705_cast_fp16, var_707_cast_fp16, var_709_cast_fp16))[name = tensor<string, []>("op_743_cast_fp16")];
            tensor<bool, []> var_745_interleave_0 = const()[name = tensor<string, []>("op_745_interleave_0"), val = tensor<bool, []>(false)];
            tensor<fp16, [1, 64, 1, 1500]> var_745_cast_fp16 = concat(axis = var_122, interleave = var_745_interleave_0, values = (var_711_cast_fp16, var_713_cast_fp16, var_715_cast_fp16, var_717_cast_fp16))[name = tensor<string, []>("op_745_cast_fp16")];
            tensor<bool, []> var_747_interleave_0 = const()[name = tensor<string, []>("op_747_interleave_0"), val = tensor<bool, []>(false)];
            tensor<fp16, [1, 64, 1, 1500]> var_747_cast_fp16 = concat(axis = var_122, interleave = var_747_interleave_0, values = (var_719_cast_fp16, var_721_cast_fp16, var_723_cast_fp16, var_725_cast_fp16))[name = tensor<string, []>("op_747_cast_fp16")];
            tensor<bool, []> var_749_interleave_0 = const()[name = tensor<string, []>("op_749_interleave_0"), val = tensor<bool, []>(false)];
            tensor<fp16, [1, 64, 1, 1500]> var_749_cast_fp16 = concat(axis = var_122, interleave = var_749_interleave_0, values = (var_727_cast_fp16, var_729_cast_fp16, var_731_cast_fp16, var_733_cast_fp16))[name = tensor<string, []>("op_749_cast_fp16")];
            tensor<bool, []> input_1_interleave_0 = const()[name = tensor<string, []>("input_1_interleave_0"), val = tensor<bool, []>(false)];
            tensor<fp16, [1, 512, 1, 1500]> input_1_cast_fp16 = concat(axis = var_135, interleave = input_1_interleave_0, values = (var_735_cast_fp16, var_737_cast_fp16, var_739_cast_fp16, var_741_cast_fp16, var_743_cast_fp16, var_745_cast_fp16, var_747_cast_fp16, var_749_cast_fp16))[name = tensor<string, []>("input_1_cast_fp16")];
            tensor<int32, [2]> var_754 = const()[name = tensor<string, []>("op_754"), val = tensor<int32, [2]>([1, 1])];
            tensor<int32, [2]> var_756 = const()[name = tensor<string, []>("op_756"), val = tensor<int32, [2]>([1, 1])];
            tensor<string, []> obj_3_pad_type_0 = const()[name = tensor<string, []>("obj_3_pad_type_0"), val = tensor<string, []>("custom")];
            tensor<int32, [4]> obj_3_pad_0 = const()[name = tensor<string, []>("obj_3_pad_0"), val = tensor<int32, [4]>([0, 0, 0, 0])];
            tensor<fp16, [512, 512, 1, 1]> layers_0_self_attn_o_proj_weight_to_fp16 = const()[name = tensor<string, []>("layers_0_self_attn_o_proj_weight_to_fp16"), val = tensor<fp16, [512, 512, 1, 1]>(BLOBFILE(path = tensor<string, []>("@model_path/weights/weight.bin"), offset = tensor<uint64, []>(4936640)))];
            tensor<fp16, [512]> layers_0_self_attn_o_proj_bias_to_fp16 = const()[name = tensor<string, []>("layers_0_self_attn_o_proj_bias_to_fp16"), val = tensor<fp16, [512]>(BLOBFILE(path = tensor<string, []>("@model_path/weights/weight.bin"), offset = tensor<uint64, []>(5460992)))];
            tensor<fp16, [1, 512, 1, 1500]> obj_3_cast_fp16 = conv(bias = layers_0_self_attn_o_proj_bias_to_fp16, dilations = var_756, groups = var_135, pad = obj_3_pad_0, pad_type = obj_3_pad_type_0, strides = var_754, weight = layers_0_self_attn_o_proj_weight_to_fp16, x = input_1_cast_fp16)[name = tensor<string, []>("obj_3_cast_fp16")];
            tensor<fp16, [1, 512, 1, 1500]> inputs_3_cast_fp16 = add(x = inputs_1_cast_fp16, y = obj_3_cast_fp16)[name = tensor<string, []>("inputs_3_cast_fp16")];
            tensor<int32, [1]> var_762 = const()[name = tensor<string, []>("op_762"), val = tensor<int32, [1]>([1])];
            tensor<fp16, [1, 1, 1, 1500]> channels_mean_3_cast_fp16 = reduce_mean(axes = var_762, keep_dims = var_136, x = inputs_3_cast_fp16)[name = tensor<string, []>("channels_mean_3_cast_fp16")];
            tensor<fp16, [1, 512, 1, 1500]> zero_mean_3_cast_fp16 = sub(x = inputs_3_cast_fp16, y = channels_mean_3_cast_fp16)[name = tensor<string, []>("zero_mean_3_cast_fp16")];
            tensor<fp16, [1, 512, 1, 1500]> zero_mean_sq_3_cast_fp16 = mul(x = zero_mean_3_cast_fp16, y = zero_mean_3_cast_fp16)[name = tensor<string, []>("zero_mean_sq_3_cast_fp16")];
            tensor<int32, [1]> var_766 = const()[name = tensor<string, []>("op_766"), val = tensor<int32, [1]>([1])];
            tensor<fp16, [1, 1, 1, 1500]> var_767_cast_fp16 = reduce_mean(axes = var_766, keep_dims = var_136, x = zero_mean_sq_3_cast_fp16)[name = tensor<string, []>("op_767_cast_fp16")];
            tensor<fp16, []> var_768_to_fp16 = const()[name = tensor<string, []>("op_768_to_fp16"), val = tensor<fp16, []>(0x1.5p-17)];
            tensor<fp16, [1, 1, 1, 1500]> var_769_cast_fp16 = add(x = var_767_cast_fp16, y = var_768_to_fp16)[name = tensor<string, []>("op_769_cast_fp16")];
            tensor<fp32, []> denom_3_epsilon_0 = const()[name = tensor<string, []>("denom_3_epsilon_0"), val = tensor<fp32, []>(0x1.197998p-40)];
            tensor<fp16, [1, 1, 1, 1500]> denom_3_cast_fp16 = rsqrt(epsilon = denom_3_epsilon_0, x = var_769_cast_fp16)[name = tensor<string, []>("denom_3_cast_fp16")];
            tensor<fp16, [1, 512, 1, 1500]> out_3_cast_fp16 = mul(x = zero_mean_3_cast_fp16, y = denom_3_cast_fp16)[name = tensor<string, []>("out_3_cast_fp16")];
            tensor<fp16, [512]> input_3_gamma_0_to_fp16 = const()[name = tensor<string, []>("input_3_gamma_0_to_fp16"), val = tensor<fp16, [512]>(BLOBFILE(path = tensor<string, []>("@model_path/weights/weight.bin"), offset = tensor<uint64, []>(5462080)))];
            tensor<fp16, [512]> input_3_beta_0_to_fp16 = const()[name = tensor<string, []>("input_3_beta_0_to_fp16"), val = tensor<fp16, [512]>(BLOBFILE(path = tensor<string, []>("@model_path/weights/weight.bin"), offset = tensor<uint64, []>(5463168)))];
            tensor<fp16, []> input_3_epsilon_0_to_fp16 = const()[name = tensor<string, []>("input_3_epsilon_0_to_fp16"), val = tensor<fp16, []>(0x1.5p-17)];
            tensor<fp16, [1, 512, 1, 1500]> input_3_cast_fp16 = batch_norm(beta = input_3_beta_0_to_fp16, epsilon = input_3_epsilon_0_to_fp16, gamma = input_3_gamma_0_to_fp16, mean = obj_1_mean_0_to_fp16, variance = obj_1_variance_0_to_fp16, x = out_3_cast_fp16)[name = tensor<string, []>("input_3_cast_fp16")];
            tensor<int32, [2]> var_780 = const()[name = tensor<string, []>("op_780"), val = tensor<int32, [2]>([1, 1])];
            tensor<int32, [2]> var_782 = const()[name = tensor<string, []>("op_782"), val = tensor<int32, [2]>([1, 1])];
            tensor<string, []> input_5_pad_type_0 = const()[name = tensor<string, []>("input_5_pad_type_0"), val = tensor<string, []>("custom")];
            tensor<int32, [4]> input_5_pad_0 = const()[name = tensor<string, []>("input_5_pad_0"), val = tensor<int32, [4]>([0, 0, 0, 0])];
            tensor<fp16, [2048, 512, 1, 1]> layers_0_fc1_weight_to_fp16 = const()[name = tensor<string, []>("layers_0_fc1_weight_to_fp16"), val = tensor<fp16, [2048, 512, 1, 1]>(BLOBFILE(path = tensor<string, []>("@model_path/weights/weight.bin"), offset = tensor<uint64, []>(5464256)))];
            tensor<fp16, [2048]> layers_0_fc1_bias_to_fp16 = const()[name = tensor<string, []>("layers_0_fc1_bias_to_fp16"), val = tensor<fp16, [2048]>(BLOBFILE(path = tensor<string, []>("@model_path/weights/weight.bin"), offset = tensor<uint64, []>(7561472)))];
            tensor<fp16, [1, 2048, 1, 1500]> input_5_cast_fp16 = conv(bias = layers_0_fc1_bias_to_fp16, dilations = var_782, groups = var_135, pad = input_5_pad_0, pad_type = input_5_pad_type_0, strides = var_780, weight = layers_0_fc1_weight_to_fp16, x = input_3_cast_fp16)[name = tensor<string, []>("input_5_cast_fp16")];
            tensor<string, []> input_7_mode_0 = const()[name = tensor<string, []>("input_7_mode_0"), val = tensor<string, []>("EXACT")];
            tensor<fp16, [1, 2048, 1, 1500]> input_7_cast_fp16 = gelu(mode = input_7_mode_0, x = input_5_cast_fp16)[name = tensor<string, []>("input_7_cast_fp16")];
            tensor<int32, [2]> var_788 = const()[name = tensor<string, []>("op_788"), val = tensor<int32, [2]>([1, 1])];
            tensor<int32, [2]> var_790 = const()[name = tensor<string, []>("op_790"), val = tensor<int32, [2]>([1, 1])];
            tensor<string, []> hidden_states_5_pad_type_0 = const()[name = tensor<string, []>("hidden_states_5_pad_type_0"), val = tensor<string, []>("custom")];
            tensor<int32, [4]> hidden_states_5_pad_0 = const()[name = tensor<string, []>("hidden_states_5_pad_0"), val = tensor<int32, [4]>([0, 0, 0, 0])];
            tensor<fp16, [512, 2048, 1, 1]> layers_0_fc2_weight_to_fp16 = const()[name = tensor<string, []>("layers_0_fc2_weight_to_fp16"), val = tensor<fp16, [512, 2048, 1, 1]>(BLOBFILE(path = tensor<string, []>("@model_path/weights/weight.bin"), offset = tensor<uint64, []>(7565632)))];
            tensor<fp16, [512]> layers_0_fc2_bias_to_fp16 = const()[name = tensor<string, []>("layers_0_fc2_bias_to_fp16"), val = tensor<fp16, [512]>(BLOBFILE(path = tensor<string, []>("@model_path/weights/weight.bin"), offset = tensor<uint64, []>(9662848)))];
            tensor<fp16, [1, 512, 1, 1500]> hidden_states_5_cast_fp16 = conv(bias = layers_0_fc2_bias_to_fp16, dilations = var_790, groups = var_135, pad = hidden_states_5_pad_0, pad_type = hidden_states_5_pad_type_0, strides = var_788, weight = layers_0_fc2_weight_to_fp16, x = input_7_cast_fp16)[name = tensor<string, []>("hidden_states_5_cast_fp16")];
            tensor<fp16, [1, 512, 1, 1500]> inputs_5_cast_fp16 = add(x = inputs_3_cast_fp16, y = hidden_states_5_cast_fp16)[name = tensor<string, []>("inputs_5_cast_fp16")];
            tensor<int32, []> var_797 = const()[name = tensor<string, []>("op_797"), val = tensor<int32, []>(3)];
            tensor<int32, []> var_810 = const()[name = tensor<string, []>("op_810"), val = tensor<int32, []>(1)];
            tensor<bool, []> var_811 = const()[name = tensor<string, []>("op_811"), val = tensor<bool, []>(true)];
            tensor<int32, [1]> var_821 = const()[name = tensor<string, []>("op_821"), val = tensor<int32, [1]>([1])];
            tensor<fp16, [1, 1, 1, 1500]> channels_mean_5_cast_fp16 = reduce_mean(axes = var_821, keep_dims = var_811, x = inputs_5_cast_fp16)[name = tensor<string, []>("channels_mean_5_cast_fp16")];
            tensor<fp16, [1, 512, 1, 1500]> zero_mean_5_cast_fp16 = sub(x = inputs_5_cast_fp16, y = channels_mean_5_cast_fp16)[name = tensor<string, []>("zero_mean_5_cast_fp16")];
            tensor<fp16, [1, 512, 1, 1500]> zero_mean_sq_5_cast_fp16 = mul(x = zero_mean_5_cast_fp16, y = zero_mean_5_cast_fp16)[name = tensor<string, []>("zero_mean_sq_5_cast_fp16")];
            tensor<int32, [1]> var_825 = const()[name = tensor<string, []>("op_825"), val = tensor<int32, [1]>([1])];
            tensor<fp16, [1, 1, 1, 1500]> var_826_cast_fp16 = reduce_mean(axes = var_825, keep_dims = var_811, x = zero_mean_sq_5_cast_fp16)[name = tensor<string, []>("op_826_cast_fp16")];
            tensor<fp16, []> var_827_to_fp16 = const()[name = tensor<string, []>("op_827_to_fp16"), val = tensor<fp16, []>(0x1.5p-17)];
            tensor<fp16, [1, 1, 1, 1500]> var_828_cast_fp16 = add(x = var_826_cast_fp16, y = var_827_to_fp16)[name = tensor<string, []>("op_828_cast_fp16")];
            tensor<fp32, []> denom_5_epsilon_0 = const()[name = tensor<string, []>("denom_5_epsilon_0"), val = tensor<fp32, []>(0x1.197998p-40)];
            tensor<fp16, [1, 1, 1, 1500]> denom_5_cast_fp16 = rsqrt(epsilon = denom_5_epsilon_0, x = var_828_cast_fp16)[name = tensor<string, []>("denom_5_cast_fp16")];
            tensor<fp16, [1, 512, 1, 1500]> out_5_cast_fp16 = mul(x = zero_mean_5_cast_fp16, y = denom_5_cast_fp16)[name = tensor<string, []>("out_5_cast_fp16")];
            tensor<fp16, [512]> obj_5_gamma_0_to_fp16 = const()[name = tensor<string, []>("obj_5_gamma_0_to_fp16"), val = tensor<fp16, [512]>(BLOBFILE(path = tensor<string, []>("@model_path/weights/weight.bin"), offset = tensor<uint64, []>(9663936)))];
            tensor<fp16, [512]> obj_5_beta_0_to_fp16 = const()[name = tensor<string, []>("obj_5_beta_0_to_fp16"), val = tensor<fp16, [512]>(BLOBFILE(path = tensor<string, []>("@model_path/weights/weight.bin"), offset = tensor<uint64, []>(9665024)))];
            tensor<fp16, []> obj_5_epsilon_0_to_fp16 = const()[name = tensor<string, []>("obj_5_epsilon_0_to_fp16"), val = tensor<fp16, []>(0x1.5p-17)];
            tensor<fp16, [1, 512, 1, 1500]> obj_5_cast_fp16 = batch_norm(beta = obj_5_beta_0_to_fp16, epsilon = obj_5_epsilon_0_to_fp16, gamma = obj_5_gamma_0_to_fp16, mean = obj_1_mean_0_to_fp16, variance = obj_1_variance_0_to_fp16, x = out_5_cast_fp16)[name = tensor<string, []>("obj_5_cast_fp16")];
            tensor<int32, [2]> var_843 = const()[name = tensor<string, []>("op_843"), val = tensor<int32, [2]>([1, 1])];
            tensor<int32, [2]> var_845 = const()[name = tensor<string, []>("op_845"), val = tensor<int32, [2]>([1, 1])];
            tensor<string, []> query_3_pad_type_0 = const()[name = tensor<string, []>("query_3_pad_type_0"), val = tensor<string, []>("custom")];
            tensor<int32, [4]> query_3_pad_0 = const()[name = tensor<string, []>("query_3_pad_0"), val = tensor<int32, [4]>([0, 0, 0, 0])];
            tensor<fp16, [512, 512, 1, 1]> layers_1_self_attn_q_proj_weight_to_fp16 = const()[name = tensor<string, []>("layers_1_self_attn_q_proj_weight_to_fp16"), val = tensor<fp16, [512, 512, 1, 1]>(BLOBFILE(path = tensor<string, []>("@model_path/weights/weight.bin"), offset = tensor<uint64, []>(9666112)))];
            tensor<fp16, [512]> layers_1_self_attn_q_proj_bias_to_fp16 = const()[name = tensor<string, []>("layers_1_self_attn_q_proj_bias_to_fp16"), val = tensor<fp16, [512]>(BLOBFILE(path = tensor<string, []>("@model_path/weights/weight.bin"), offset = tensor<uint64, []>(10190464)))];
            tensor<fp16, [1, 512, 1, 1500]> query_3_cast_fp16 = conv(bias = layers_1_self_attn_q_proj_bias_to_fp16, dilations = var_845, groups = var_810, pad = query_3_pad_0, pad_type = query_3_pad_type_0, strides = var_843, weight = layers_1_self_attn_q_proj_weight_to_fp16, x = obj_5_cast_fp16)[name = tensor<string, []>("query_3_cast_fp16")];
            tensor<int32, [2]> var_849 = const()[name = tensor<string, []>("op_849"), val = tensor<int32, [2]>([1, 1])];
            tensor<int32, [2]> var_851 = const()[name = tensor<string, []>("op_851"), val = tensor<int32, [2]>([1, 1])];
            tensor<string, []> key_3_pad_type_0 = const()[name = tensor<string, []>("key_3_pad_type_0"), val = tensor<string, []>("custom")];
            tensor<int32, [4]> key_3_pad_0 = const()[name = tensor<string, []>("key_3_pad_0"), val = tensor<int32, [4]>([0, 0, 0, 0])];
            tensor<fp16, [512, 512, 1, 1]> layers_1_self_attn_k_proj_weight_to_fp16 = const()[name = tensor<string, []>("layers_1_self_attn_k_proj_weight_to_fp16"), val = tensor<fp16, [512, 512, 1, 1]>(BLOBFILE(path = tensor<string, []>("@model_path/weights/weight.bin"), offset = tensor<uint64, []>(10191552)))];
            tensor<fp16, [1, 512, 1, 1500]> key_3_cast_fp16 = conv(dilations = var_851, groups = var_810, pad = key_3_pad_0, pad_type = key_3_pad_type_0, strides = var_849, weight = layers_1_self_attn_k_proj_weight_to_fp16, x = obj_5_cast_fp16)[name = tensor<string, []>("key_3_cast_fp16")];
            tensor<int32, [2]> var_856 = const()[name = tensor<string, []>("op_856"), val = tensor<int32, [2]>([1, 1])];
            tensor<int32, [2]> var_858 = const()[name = tensor<string, []>("op_858"), val = tensor<int32, [2]>([1, 1])];
            tensor<string, []> value_3_pad_type_0 = const()[name = tensor<string, []>("value_3_pad_type_0"), val = tensor<string, []>("custom")];
            tensor<int32, [4]> value_3_pad_0 = const()[name = tensor<string, []>("value_3_pad_0"), val = tensor<int32, [4]>([0, 0, 0, 0])];
            tensor<fp16, [512, 512, 1, 1]> layers_1_self_attn_v_proj_weight_to_fp16 = const()[name = tensor<string, []>("layers_1_self_attn_v_proj_weight_to_fp16"), val = tensor<fp16, [512, 512, 1, 1]>(BLOBFILE(path = tensor<string, []>("@model_path/weights/weight.bin"), offset = tensor<uint64, []>(10715904)))];
            tensor<fp16, [512]> layers_1_self_attn_v_proj_bias_to_fp16 = const()[name = tensor<string, []>("layers_1_self_attn_v_proj_bias_to_fp16"), val = tensor<fp16, [512]>(BLOBFILE(path = tensor<string, []>("@model_path/weights/weight.bin"), offset = tensor<uint64, []>(11240256)))];
            tensor<fp16, [1, 512, 1, 1500]> value_3_cast_fp16 = conv(bias = layers_1_self_attn_v_proj_bias_to_fp16, dilations = var_858, groups = var_810, pad = value_3_pad_0, pad_type = value_3_pad_type_0, strides = var_856, weight = layers_1_self_attn_v_proj_weight_to_fp16, x = obj_5_cast_fp16)[name = tensor<string, []>("value_3_cast_fp16")];
            tensor<int32, [4]> var_865_begin_0 = const()[name = tensor<string, []>("op_865_begin_0"), val = tensor<int32, [4]>([0, 0, 0, 0])];
            tensor<int32, [4]> var_865_end_0 = const()[name = tensor<string, []>("op_865_end_0"), val = tensor<int32, [4]>([1, 64, 1, 1500])];
            tensor<bool, [4]> var_865_end_mask_0 = const()[name = tensor<string, []>("op_865_end_mask_0"), val = tensor<bool, [4]>([true, false, true, true])];
            tensor<fp16, [1, 64, 1, 1500]> var_865_cast_fp16 = slice_by_index(begin = var_865_begin_0, end = var_865_end_0, end_mask = var_865_end_mask_0, x = query_3_cast_fp16)[name = tensor<string, []>("op_865_cast_fp16")];
            tensor<int32, [4]> var_869_begin_0 = const()[name = tensor<string, []>("op_869_begin_0"), val = tensor<int32, [4]>([0, 64, 0, 0])];
            tensor<int32, [4]> var_869_end_0 = const()[name = tensor<string, []>("op_869_end_0"), val = tensor<int32, [4]>([1, 128, 1, 1500])];
            tensor<bool, [4]> var_869_end_mask_0 = const()[name = tensor<string, []>("op_869_end_mask_0"), val = tensor<bool, [4]>([true, false, true, true])];
            tensor<fp16, [1, 64, 1, 1500]> var_869_cast_fp16 = slice_by_index(begin = var_869_begin_0, end = var_869_end_0, end_mask = var_869_end_mask_0, x = query_3_cast_fp16)[name = tensor<string, []>("op_869_cast_fp16")];
            tensor<int32, [4]> var_873_begin_0 = const()[name = tensor<string, []>("op_873_begin_0"), val = tensor<int32, [4]>([0, 128, 0, 0])];
            tensor<int32, [4]> var_873_end_0 = const()[name = tensor<string, []>("op_873_end_0"), val = tensor<int32, [4]>([1, 192, 1, 1500])];
            tensor<bool, [4]> var_873_end_mask_0 = const()[name = tensor<string, []>("op_873_end_mask_0"), val = tensor<bool, [4]>([true, false, true, true])];
            tensor<fp16, [1, 64, 1, 1500]> var_873_cast_fp16 = slice_by_index(begin = var_873_begin_0, end = var_873_end_0, end_mask = var_873_end_mask_0, x = query_3_cast_fp16)[name = tensor<string, []>("op_873_cast_fp16")];
            tensor<int32, [4]> var_877_begin_0 = const()[name = tensor<string, []>("op_877_begin_0"), val = tensor<int32, [4]>([0, 192, 0, 0])];
            tensor<int32, [4]> var_877_end_0 = const()[name = tensor<string, []>("op_877_end_0"), val = tensor<int32, [4]>([1, 256, 1, 1500])];
            tensor<bool, [4]> var_877_end_mask_0 = const()[name = tensor<string, []>("op_877_end_mask_0"), val = tensor<bool, [4]>([true, false, true, true])];
            tensor<fp16, [1, 64, 1, 1500]> var_877_cast_fp16 = slice_by_index(begin = var_877_begin_0, end = var_877_end_0, end_mask = var_877_end_mask_0, x = query_3_cast_fp16)[name = tensor<string, []>("op_877_cast_fp16")];
            tensor<int32, [4]> var_881_begin_0 = const()[name = tensor<string, []>("op_881_begin_0"), val = tensor<int32, [4]>([0, 256, 0, 0])];
            tensor<int32, [4]> var_881_end_0 = const()[name = tensor<string, []>("op_881_end_0"), val = tensor<int32, [4]>([1, 320, 1, 1500])];
            tensor<bool, [4]> var_881_end_mask_0 = const()[name = tensor<string, []>("op_881_end_mask_0"), val = tensor<bool, [4]>([true, false, true, true])];
            tensor<fp16, [1, 64, 1, 1500]> var_881_cast_fp16 = slice_by_index(begin = var_881_begin_0, end = var_881_end_0, end_mask = var_881_end_mask_0, x = query_3_cast_fp16)[name = tensor<string, []>("op_881_cast_fp16")];
            tensor<int32, [4]> var_885_begin_0 = const()[name = tensor<string, []>("op_885_begin_0"), val = tensor<int32, [4]>([0, 320, 0, 0])];
            tensor<int32, [4]> var_885_end_0 = const()[name = tensor<string, []>("op_885_end_0"), val = tensor<int32, [4]>([1, 384, 1, 1500])];
            tensor<bool, [4]> var_885_end_mask_0 = const()[name = tensor<string, []>("op_885_end_mask_0"), val = tensor<bool, [4]>([true, false, true, true])];
            tensor<fp16, [1, 64, 1, 1500]> var_885_cast_fp16 = slice_by_index(begin = var_885_begin_0, end = var_885_end_0, end_mask = var_885_end_mask_0, x = query_3_cast_fp16)[name = tensor<string, []>("op_885_cast_fp16")];
            tensor<int32, [4]> var_889_begin_0 = const()[name = tensor<string, []>("op_889_begin_0"), val = tensor<int32, [4]>([0, 384, 0, 0])];
            tensor<int32, [4]> var_889_end_0 = const()[name = tensor<string, []>("op_889_end_0"), val = tensor<int32, [4]>([1, 448, 1, 1500])];
            tensor<bool, [4]> var_889_end_mask_0 = const()[name = tensor<string, []>("op_889_end_mask_0"), val = tensor<bool, [4]>([true, false, true, true])];
            tensor<fp16, [1, 64, 1, 1500]> var_889_cast_fp16 = slice_by_index(begin = var_889_begin_0, end = var_889_end_0, end_mask = var_889_end_mask_0, x = query_3_cast_fp16)[name = tensor<string, []>("op_889_cast_fp16")];
            tensor<int32, [4]> var_893_begin_0 = const()[name = tensor<string, []>("op_893_begin_0"), val = tensor<int32, [4]>([0, 448, 0, 0])];
            tensor<int32, [4]> var_893_end_0 = const()[name = tensor<string, []>("op_893_end_0"), val = tensor<int32, [4]>([1, 512, 1, 1500])];
            tensor<bool, [4]> var_893_end_mask_0 = const()[name = tensor<string, []>("op_893_end_mask_0"), val = tensor<bool, [4]>([true, false, true, true])];
            tensor<fp16, [1, 64, 1, 1500]> var_893_cast_fp16 = slice_by_index(begin = var_893_begin_0, end = var_893_end_0, end_mask = var_893_end_mask_0, x = query_3_cast_fp16)[name = tensor<string, []>("op_893_cast_fp16")];
            tensor<int32, [4]> var_902_begin_0 = const()[name = tensor<string, []>("op_902_begin_0"), val = tensor<int32, [4]>([0, 0, 0, 0])];
            tensor<int32, [4]> var_902_end_0 = const()[name = tensor<string, []>("op_902_end_0"), val = tensor<int32, [4]>([1, 64, 1, 375])];
            tensor<bool, [4]> var_902_end_mask_0 = const()[name = tensor<string, []>("op_902_end_mask_0"), val = tensor<bool, [4]>([true, true, true, false])];
            tensor<fp16, [1, 64, 1, 375]> var_902_cast_fp16 = slice_by_index(begin = var_902_begin_0, end = var_902_end_0, end_mask = var_902_end_mask_0, x = var_865_cast_fp16)[name = tensor<string, []>("op_902_cast_fp16")];
            tensor<int32, [4]> var_909_begin_0 = const()[name = tensor<string, []>("op_909_begin_0"), val = tensor<int32, [4]>([0, 0, 0, 375])];
            tensor<int32, [4]> var_909_end_0 = const()[name = tensor<string, []>("op_909_end_0"), val = tensor<int32, [4]>([1, 64, 1, 750])];
            tensor<bool, [4]> var_909_end_mask_0 = const()[name = tensor<string, []>("op_909_end_mask_0"), val = tensor<bool, [4]>([true, true, true, false])];
            tensor<fp16, [1, 64, 1, 375]> var_909_cast_fp16 = slice_by_index(begin = var_909_begin_0, end = var_909_end_0, end_mask = var_909_end_mask_0, x = var_865_cast_fp16)[name = tensor<string, []>("op_909_cast_fp16")];
            tensor<int32, [4]> var_916_begin_0 = const()[name = tensor<string, []>("op_916_begin_0"), val = tensor<int32, [4]>([0, 0, 0, 750])];
            tensor<int32, [4]> var_916_end_0 = const()[name = tensor<string, []>("op_916_end_0"), val = tensor<int32, [4]>([1, 64, 1, 1125])];
            tensor<bool, [4]> var_916_end_mask_0 = const()[name = tensor<string, []>("op_916_end_mask_0"), val = tensor<bool, [4]>([true, true, true, false])];
            tensor<fp16, [1, 64, 1, 375]> var_916_cast_fp16 = slice_by_index(begin = var_916_begin_0, end = var_916_end_0, end_mask = var_916_end_mask_0, x = var_865_cast_fp16)[name = tensor<string, []>("op_916_cast_fp16")];
            tensor<int32, [4]> var_923_begin_0 = const()[name = tensor<string, []>("op_923_begin_0"), val = tensor<int32, [4]>([0, 0, 0, 1125])];
            tensor<int32, [4]> var_923_end_0 = const()[name = tensor<string, []>("op_923_end_0"), val = tensor<int32, [4]>([1, 64, 1, 1500])];
            tensor<bool, [4]> var_923_end_mask_0 = const()[name = tensor<string, []>("op_923_end_mask_0"), val = tensor<bool, [4]>([true, true, true, false])];
            tensor<fp16, [1, 64, 1, 375]> var_923_cast_fp16 = slice_by_index(begin = var_923_begin_0, end = var_923_end_0, end_mask = var_923_end_mask_0, x = var_865_cast_fp16)[name = tensor<string, []>("op_923_cast_fp16")];
            tensor<int32, [4]> var_930_begin_0 = const()[name = tensor<string, []>("op_930_begin_0"), val = tensor<int32, [4]>([0, 0, 0, 0])];
            tensor<int32, [4]> var_930_end_0 = const()[name = tensor<string, []>("op_930_end_0"), val = tensor<int32, [4]>([1, 64, 1, 375])];
            tensor<bool, [4]> var_930_end_mask_0 = const()[name = tensor<string, []>("op_930_end_mask_0"), val = tensor<bool, [4]>([true, true, true, false])];
            tensor<fp16, [1, 64, 1, 375]> var_930_cast_fp16 = slice_by_index(begin = var_930_begin_0, end = var_930_end_0, end_mask = var_930_end_mask_0, x = var_869_cast_fp16)[name = tensor<string, []>("op_930_cast_fp16")];
            tensor<int32, [4]> var_937_begin_0 = const()[name = tensor<string, []>("op_937_begin_0"), val = tensor<int32, [4]>([0, 0, 0, 375])];
            tensor<int32, [4]> var_937_end_0 = const()[name = tensor<string, []>("op_937_end_0"), val = tensor<int32, [4]>([1, 64, 1, 750])];
            tensor<bool, [4]> var_937_end_mask_0 = const()[name = tensor<string, []>("op_937_end_mask_0"), val = tensor<bool, [4]>([true, true, true, false])];
            tensor<fp16, [1, 64, 1, 375]> var_937_cast_fp16 = slice_by_index(begin = var_937_begin_0, end = var_937_end_0, end_mask = var_937_end_mask_0, x = var_869_cast_fp16)[name = tensor<string, []>("op_937_cast_fp16")];
            tensor<int32, [4]> var_944_begin_0 = const()[name = tensor<string, []>("op_944_begin_0"), val = tensor<int32, [4]>([0, 0, 0, 750])];
            tensor<int32, [4]> var_944_end_0 = const()[name = tensor<string, []>("op_944_end_0"), val = tensor<int32, [4]>([1, 64, 1, 1125])];
            tensor<bool, [4]> var_944_end_mask_0 = const()[name = tensor<string, []>("op_944_end_mask_0"), val = tensor<bool, [4]>([true, true, true, false])];
            tensor<fp16, [1, 64, 1, 375]> var_944_cast_fp16 = slice_by_index(begin = var_944_begin_0, end = var_944_end_0, end_mask = var_944_end_mask_0, x = var_869_cast_fp16)[name = tensor<string, []>("op_944_cast_fp16")];
            tensor<int32, [4]> var_951_begin_0 = const()[name = tensor<string, []>("op_951_begin_0"), val = tensor<int32, [4]>([0, 0, 0, 1125])];
            tensor<int32, [4]> var_951_end_0 = const()[name = tensor<string, []>("op_951_end_0"), val = tensor<int32, [4]>([1, 64, 1, 1500])];
            tensor<bool, [4]> var_951_end_mask_0 = const()[name = tensor<string, []>("op_951_end_mask_0"), val = tensor<bool, [4]>([true, true, true, false])];
            tensor<fp16, [1, 64, 1, 375]> var_951_cast_fp16 = slice_by_index(begin = var_951_begin_0, end = var_951_end_0, end_mask = var_951_end_mask_0, x = var_869_cast_fp16)[name = tensor<string, []>("op_951_cast_fp16")];
            tensor<int32, [4]> var_958_begin_0 = const()[name = tensor<string, []>("op_958_begin_0"), val = tensor<int32, [4]>([0, 0, 0, 0])];
            tensor<int32, [4]> var_958_end_0 = const()[name = tensor<string, []>("op_958_end_0"), val = tensor<int32, [4]>([1, 64, 1, 375])];
            tensor<bool, [4]> var_958_end_mask_0 = const()[name = tensor<string, []>("op_958_end_mask_0"), val = tensor<bool, [4]>([true, true, true, false])];
            tensor<fp16, [1, 64, 1, 375]> var_958_cast_fp16 = slice_by_index(begin = var_958_begin_0, end = var_958_end_0, end_mask = var_958_end_mask_0, x = var_873_cast_fp16)[name = tensor<string, []>("op_958_cast_fp16")];
            tensor<int32, [4]> var_965_begin_0 = const()[name = tensor<string, []>("op_965_begin_0"), val = tensor<int32, [4]>([0, 0, 0, 375])];
            tensor<int32, [4]> var_965_end_0 = const()[name = tensor<string, []>("op_965_end_0"), val = tensor<int32, [4]>([1, 64, 1, 750])];
            tensor<bool, [4]> var_965_end_mask_0 = const()[name = tensor<string, []>("op_965_end_mask_0"), val = tensor<bool, [4]>([true, true, true, false])];
            tensor<fp16, [1, 64, 1, 375]> var_965_cast_fp16 = slice_by_index(begin = var_965_begin_0, end = var_965_end_0, end_mask = var_965_end_mask_0, x = var_873_cast_fp16)[name = tensor<string, []>("op_965_cast_fp16")];
            tensor<int32, [4]> var_972_begin_0 = const()[name = tensor<string, []>("op_972_begin_0"), val = tensor<int32, [4]>([0, 0, 0, 750])];
            tensor<int32, [4]> var_972_end_0 = const()[name = tensor<string, []>("op_972_end_0"), val = tensor<int32, [4]>([1, 64, 1, 1125])];
            tensor<bool, [4]> var_972_end_mask_0 = const()[name = tensor<string, []>("op_972_end_mask_0"), val = tensor<bool, [4]>([true, true, true, false])];
            tensor<fp16, [1, 64, 1, 375]> var_972_cast_fp16 = slice_by_index(begin = var_972_begin_0, end = var_972_end_0, end_mask = var_972_end_mask_0, x = var_873_cast_fp16)[name = tensor<string, []>("op_972_cast_fp16")];
            tensor<int32, [4]> var_979_begin_0 = const()[name = tensor<string, []>("op_979_begin_0"), val = tensor<int32, [4]>([0, 0, 0, 1125])];
            tensor<int32, [4]> var_979_end_0 = const()[name = tensor<string, []>("op_979_end_0"), val = tensor<int32, [4]>([1, 64, 1, 1500])];
            tensor<bool, [4]> var_979_end_mask_0 = const()[name = tensor<string, []>("op_979_end_mask_0"), val = tensor<bool, [4]>([true, true, true, false])];
            tensor<fp16, [1, 64, 1, 375]> var_979_cast_fp16 = slice_by_index(begin = var_979_begin_0, end = var_979_end_0, end_mask = var_979_end_mask_0, x = var_873_cast_fp16)[name = tensor<string, []>("op_979_cast_fp16")];
            tensor<int32, [4]> var_986_begin_0 = const()[name = tensor<string, []>("op_986_begin_0"), val = tensor<int32, [4]>([0, 0, 0, 0])];
            tensor<int32, [4]> var_986_end_0 = const()[name = tensor<string, []>("op_986_end_0"), val = tensor<int32, [4]>([1, 64, 1, 375])];
            tensor<bool, [4]> var_986_end_mask_0 = const()[name = tensor<string, []>("op_986_end_mask_0"), val = tensor<bool, [4]>([true, true, true, false])];
            tensor<fp16, [1, 64, 1, 375]> var_986_cast_fp16 = slice_by_index(begin = var_986_begin_0, end = var_986_end_0, end_mask = var_986_end_mask_0, x = var_877_cast_fp16)[name = tensor<string, []>("op_986_cast_fp16")];
            tensor<int32, [4]> var_993_begin_0 = const()[name = tensor<string, []>("op_993_begin_0"), val = tensor<int32, [4]>([0, 0, 0, 375])];
            tensor<int32, [4]> var_993_end_0 = const()[name = tensor<string, []>("op_993_end_0"), val = tensor<int32, [4]>([1, 64, 1, 750])];
            tensor<bool, [4]> var_993_end_mask_0 = const()[name = tensor<string, []>("op_993_end_mask_0"), val = tensor<bool, [4]>([true, true, true, false])];
            tensor<fp16, [1, 64, 1, 375]> var_993_cast_fp16 = slice_by_index(begin = var_993_begin_0, end = var_993_end_0, end_mask = var_993_end_mask_0, x = var_877_cast_fp16)[name = tensor<string, []>("op_993_cast_fp16")];
            tensor<int32, [4]> var_1000_begin_0 = const()[name = tensor<string, []>("op_1000_begin_0"), val = tensor<int32, [4]>([0, 0, 0, 750])];
            tensor<int32, [4]> var_1000_end_0 = const()[name = tensor<string, []>("op_1000_end_0"), val = tensor<int32, [4]>([1, 64, 1, 1125])];
            tensor<bool, [4]> var_1000_end_mask_0 = const()[name = tensor<string, []>("op_1000_end_mask_0"), val = tensor<bool, [4]>([true, true, true, false])];
            tensor<fp16, [1, 64, 1, 375]> var_1000_cast_fp16 = slice_by_index(begin = var_1000_begin_0, end = var_1000_end_0, end_mask = var_1000_end_mask_0, x = var_877_cast_fp16)[name = tensor<string, []>("op_1000_cast_fp16")];
            tensor<int32, [4]> var_1007_begin_0 = const()[name = tensor<string, []>("op_1007_begin_0"), val = tensor<int32, [4]>([0, 0, 0, 1125])];
            tensor<int32, [4]> var_1007_end_0 = const()[name = tensor<string, []>("op_1007_end_0"), val = tensor<int32, [4]>([1, 64, 1, 1500])];
            tensor<bool, [4]> var_1007_end_mask_0 = const()[name = tensor<string, []>("op_1007_end_mask_0"), val = tensor<bool, [4]>([true, true, true, false])];
            tensor<fp16, [1, 64, 1, 375]> var_1007_cast_fp16 = slice_by_index(begin = var_1007_begin_0, end = var_1007_end_0, end_mask = var_1007_end_mask_0, x = var_877_cast_fp16)[name = tensor<string, []>("op_1007_cast_fp16")];
            tensor<int32, [4]> var_1014_begin_0 = const()[name = tensor<string, []>("op_1014_begin_0"), val = tensor<int32, [4]>([0, 0, 0, 0])];
            tensor<int32, [4]> var_1014_end_0 = const()[name = tensor<string, []>("op_1014_end_0"), val = tensor<int32, [4]>([1, 64, 1, 375])];
            tensor<bool, [4]> var_1014_end_mask_0 = const()[name = tensor<string, []>("op_1014_end_mask_0"), val = tensor<bool, [4]>([true, true, true, false])];
            tensor<fp16, [1, 64, 1, 375]> var_1014_cast_fp16 = slice_by_index(begin = var_1014_begin_0, end = var_1014_end_0, end_mask = var_1014_end_mask_0, x = var_881_cast_fp16)[name = tensor<string, []>("op_1014_cast_fp16")];
            tensor<int32, [4]> var_1021_begin_0 = const()[name = tensor<string, []>("op_1021_begin_0"), val = tensor<int32, [4]>([0, 0, 0, 375])];
            tensor<int32, [4]> var_1021_end_0 = const()[name = tensor<string, []>("op_1021_end_0"), val = tensor<int32, [4]>([1, 64, 1, 750])];
            tensor<bool, [4]> var_1021_end_mask_0 = const()[name = tensor<string, []>("op_1021_end_mask_0"), val = tensor<bool, [4]>([true, true, true, false])];
            tensor<fp16, [1, 64, 1, 375]> var_1021_cast_fp16 = slice_by_index(begin = var_1021_begin_0, end = var_1021_end_0, end_mask = var_1021_end_mask_0, x = var_881_cast_fp16)[name = tensor<string, []>("op_1021_cast_fp16")];
            tensor<int32, [4]> var_1028_begin_0 = const()[name = tensor<string, []>("op_1028_begin_0"), val = tensor<int32, [4]>([0, 0, 0, 750])];
            tensor<int32, [4]> var_1028_end_0 = const()[name = tensor<string, []>("op_1028_end_0"), val = tensor<int32, [4]>([1, 64, 1, 1125])];
            tensor<bool, [4]> var_1028_end_mask_0 = const()[name = tensor<string, []>("op_1028_end_mask_0"), val = tensor<bool, [4]>([true, true, true, false])];
            tensor<fp16, [1, 64, 1, 375]> var_1028_cast_fp16 = slice_by_index(begin = var_1028_begin_0, end = var_1028_end_0, end_mask = var_1028_end_mask_0, x = var_881_cast_fp16)[name = tensor<string, []>("op_1028_cast_fp16")];
            tensor<int32, [4]> var_1035_begin_0 = const()[name = tensor<string, []>("op_1035_begin_0"), val = tensor<int32, [4]>([0, 0, 0, 1125])];
            tensor<int32, [4]> var_1035_end_0 = const()[name = tensor<string, []>("op_1035_end_0"), val = tensor<int32, [4]>([1, 64, 1, 1500])];
            tensor<bool, [4]> var_1035_end_mask_0 = const()[name = tensor<string, []>("op_1035_end_mask_0"), val = tensor<bool, [4]>([true, true, true, false])];
            tensor<fp16, [1, 64, 1, 375]> var_1035_cast_fp16 = slice_by_index(begin = var_1035_begin_0, end = var_1035_end_0, end_mask = var_1035_end_mask_0, x = var_881_cast_fp16)[name = tensor<string, []>("op_1035_cast_fp16")];
            tensor<int32, [4]> var_1042_begin_0 = const()[name = tensor<string, []>("op_1042_begin_0"), val = tensor<int32, [4]>([0, 0, 0, 0])];
            tensor<int32, [4]> var_1042_end_0 = const()[name = tensor<string, []>("op_1042_end_0"), val = tensor<int32, [4]>([1, 64, 1, 375])];
            tensor<bool, [4]> var_1042_end_mask_0 = const()[name = tensor<string, []>("op_1042_end_mask_0"), val = tensor<bool, [4]>([true, true, true, false])];
            tensor<fp16, [1, 64, 1, 375]> var_1042_cast_fp16 = slice_by_index(begin = var_1042_begin_0, end = var_1042_end_0, end_mask = var_1042_end_mask_0, x = var_885_cast_fp16)[name = tensor<string, []>("op_1042_cast_fp16")];
            tensor<int32, [4]> var_1049_begin_0 = const()[name = tensor<string, []>("op_1049_begin_0"), val = tensor<int32, [4]>([0, 0, 0, 375])];
            tensor<int32, [4]> var_1049_end_0 = const()[name = tensor<string, []>("op_1049_end_0"), val = tensor<int32, [4]>([1, 64, 1, 750])];
            tensor<bool, [4]> var_1049_end_mask_0 = const()[name = tensor<string, []>("op_1049_end_mask_0"), val = tensor<bool, [4]>([true, true, true, false])];
            tensor<fp16, [1, 64, 1, 375]> var_1049_cast_fp16 = slice_by_index(begin = var_1049_begin_0, end = var_1049_end_0, end_mask = var_1049_end_mask_0, x = var_885_cast_fp16)[name = tensor<string, []>("op_1049_cast_fp16")];
            tensor<int32, [4]> var_1056_begin_0 = const()[name = tensor<string, []>("op_1056_begin_0"), val = tensor<int32, [4]>([0, 0, 0, 750])];
            tensor<int32, [4]> var_1056_end_0 = const()[name = tensor<string, []>("op_1056_end_0"), val = tensor<int32, [4]>([1, 64, 1, 1125])];
            tensor<bool, [4]> var_1056_end_mask_0 = const()[name = tensor<string, []>("op_1056_end_mask_0"), val = tensor<bool, [4]>([true, true, true, false])];
            tensor<fp16, [1, 64, 1, 375]> var_1056_cast_fp16 = slice_by_index(begin = var_1056_begin_0, end = var_1056_end_0, end_mask = var_1056_end_mask_0, x = var_885_cast_fp16)[name = tensor<string, []>("op_1056_cast_fp16")];
            tensor<int32, [4]> var_1063_begin_0 = const()[name = tensor<string, []>("op_1063_begin_0"), val = tensor<int32, [4]>([0, 0, 0, 1125])];
            tensor<int32, [4]> var_1063_end_0 = const()[name = tensor<string, []>("op_1063_end_0"), val = tensor<int32, [4]>([1, 64, 1, 1500])];
            tensor<bool, [4]> var_1063_end_mask_0 = const()[name = tensor<string, []>("op_1063_end_mask_0"), val = tensor<bool, [4]>([true, true, true, false])];
            tensor<fp16, [1, 64, 1, 375]> var_1063_cast_fp16 = slice_by_index(begin = var_1063_begin_0, end = var_1063_end_0, end_mask = var_1063_end_mask_0, x = var_885_cast_fp16)[name = tensor<string, []>("op_1063_cast_fp16")];
            tensor<int32, [4]> var_1070_begin_0 = const()[name = tensor<string, []>("op_1070_begin_0"), val = tensor<int32, [4]>([0, 0, 0, 0])];
            tensor<int32, [4]> var_1070_end_0 = const()[name = tensor<string, []>("op_1070_end_0"), val = tensor<int32, [4]>([1, 64, 1, 375])];
            tensor<bool, [4]> var_1070_end_mask_0 = const()[name = tensor<string, []>("op_1070_end_mask_0"), val = tensor<bool, [4]>([true, true, true, false])];
            tensor<fp16, [1, 64, 1, 375]> var_1070_cast_fp16 = slice_by_index(begin = var_1070_begin_0, end = var_1070_end_0, end_mask = var_1070_end_mask_0, x = var_889_cast_fp16)[name = tensor<string, []>("op_1070_cast_fp16")];
            tensor<int32, [4]> var_1077_begin_0 = const()[name = tensor<string, []>("op_1077_begin_0"), val = tensor<int32, [4]>([0, 0, 0, 375])];
            tensor<int32, [4]> var_1077_end_0 = const()[name = tensor<string, []>("op_1077_end_0"), val = tensor<int32, [4]>([1, 64, 1, 750])];
            tensor<bool, [4]> var_1077_end_mask_0 = const()[name = tensor<string, []>("op_1077_end_mask_0"), val = tensor<bool, [4]>([true, true, true, false])];
            tensor<fp16, [1, 64, 1, 375]> var_1077_cast_fp16 = slice_by_index(begin = var_1077_begin_0, end = var_1077_end_0, end_mask = var_1077_end_mask_0, x = var_889_cast_fp16)[name = tensor<string, []>("op_1077_cast_fp16")];
            tensor<int32, [4]> var_1084_begin_0 = const()[name = tensor<string, []>("op_1084_begin_0"), val = tensor<int32, [4]>([0, 0, 0, 750])];
            tensor<int32, [4]> var_1084_end_0 = const()[name = tensor<string, []>("op_1084_end_0"), val = tensor<int32, [4]>([1, 64, 1, 1125])];
            tensor<bool, [4]> var_1084_end_mask_0 = const()[name = tensor<string, []>("op_1084_end_mask_0"), val = tensor<bool, [4]>([true, true, true, false])];
            tensor<fp16, [1, 64, 1, 375]> var_1084_cast_fp16 = slice_by_index(begin = var_1084_begin_0, end = var_1084_end_0, end_mask = var_1084_end_mask_0, x = var_889_cast_fp16)[name = tensor<string, []>("op_1084_cast_fp16")];
            tensor<int32, [4]> var_1091_begin_0 = const()[name = tensor<string, []>("op_1091_begin_0"), val = tensor<int32, [4]>([0, 0, 0, 1125])];
            tensor<int32, [4]> var_1091_end_0 = const()[name = tensor<string, []>("op_1091_end_0"), val = tensor<int32, [4]>([1, 64, 1, 1500])];
            tensor<bool, [4]> var_1091_end_mask_0 = const()[name = tensor<string, []>("op_1091_end_mask_0"), val = tensor<bool, [4]>([true, true, true, false])];
            tensor<fp16, [1, 64, 1, 375]> var_1091_cast_fp16 = slice_by_index(begin = var_1091_begin_0, end = var_1091_end_0, end_mask = var_1091_end_mask_0, x = var_889_cast_fp16)[name = tensor<string, []>("op_1091_cast_fp16")];
            tensor<int32, [4]> var_1098_begin_0 = const()[name = tensor<string, []>("op_1098_begin_0"), val = tensor<int32, [4]>([0, 0, 0, 0])];
            tensor<int32, [4]> var_1098_end_0 = const()[name = tensor<string, []>("op_1098_end_0"), val = tensor<int32, [4]>([1, 64, 1, 375])];
            tensor<bool, [4]> var_1098_end_mask_0 = const()[name = tensor<string, []>("op_1098_end_mask_0"), val = tensor<bool, [4]>([true, true, true, false])];
            tensor<fp16, [1, 64, 1, 375]> var_1098_cast_fp16 = slice_by_index(begin = var_1098_begin_0, end = var_1098_end_0, end_mask = var_1098_end_mask_0, x = var_893_cast_fp16)[name = tensor<string, []>("op_1098_cast_fp16")];
            tensor<int32, [4]> var_1105_begin_0 = const()[name = tensor<string, []>("op_1105_begin_0"), val = tensor<int32, [4]>([0, 0, 0, 375])];
            tensor<int32, [4]> var_1105_end_0 = const()[name = tensor<string, []>("op_1105_end_0"), val = tensor<int32, [4]>([1, 64, 1, 750])];
            tensor<bool, [4]> var_1105_end_mask_0 = const()[name = tensor<string, []>("op_1105_end_mask_0"), val = tensor<bool, [4]>([true, true, true, false])];
            tensor<fp16, [1, 64, 1, 375]> var_1105_cast_fp16 = slice_by_index(begin = var_1105_begin_0, end = var_1105_end_0, end_mask = var_1105_end_mask_0, x = var_893_cast_fp16)[name = tensor<string, []>("op_1105_cast_fp16")];
            tensor<int32, [4]> var_1112_begin_0 = const()[name = tensor<string, []>("op_1112_begin_0"), val = tensor<int32, [4]>([0, 0, 0, 750])];
            tensor<int32, [4]> var_1112_end_0 = const()[name = tensor<string, []>("op_1112_end_0"), val = tensor<int32, [4]>([1, 64, 1, 1125])];
            tensor<bool, [4]> var_1112_end_mask_0 = const()[name = tensor<string, []>("op_1112_end_mask_0"), val = tensor<bool, [4]>([true, true, true, false])];
            tensor<fp16, [1, 64, 1, 375]> var_1112_cast_fp16 = slice_by_index(begin = var_1112_begin_0, end = var_1112_end_0, end_mask = var_1112_end_mask_0, x = var_893_cast_fp16)[name = tensor<string, []>("op_1112_cast_fp16")];
            tensor<int32, [4]> var_1119_begin_0 = const()[name = tensor<string, []>("op_1119_begin_0"), val = tensor<int32, [4]>([0, 0, 0, 1125])];
            tensor<int32, [4]> var_1119_end_0 = const()[name = tensor<string, []>("op_1119_end_0"), val = tensor<int32, [4]>([1, 64, 1, 1500])];
            tensor<bool, [4]> var_1119_end_mask_0 = const()[name = tensor<string, []>("op_1119_end_mask_0"), val = tensor<bool, [4]>([true, true, true, false])];
            tensor<fp16, [1, 64, 1, 375]> var_1119_cast_fp16 = slice_by_index(begin = var_1119_begin_0, end = var_1119_end_0, end_mask = var_1119_end_mask_0, x = var_893_cast_fp16)[name = tensor<string, []>("op_1119_cast_fp16")];
            tensor<int32, [4]> k_3_perm_0 = const()[name = tensor<string, []>("k_3_perm_0"), val = tensor<int32, [4]>([0, 3, 2, 1])];
            tensor<int32, [4]> var_1124_begin_0 = const()[name = tensor<string, []>("op_1124_begin_0"), val = tensor<int32, [4]>([0, 0, 0, 0])];
            tensor<int32, [4]> var_1124_end_0 = const()[name = tensor<string, []>("op_1124_end_0"), val = tensor<int32, [4]>([1, 1500, 1, 64])];
            tensor<bool, [4]> var_1124_end_mask_0 = const()[name = tensor<string, []>("op_1124_end_mask_0"), val = tensor<bool, [4]>([true, true, true, false])];
            tensor<fp16, [1, 1500, 1, 512]> transpose_4 = transpose(perm = k_3_perm_0, x = key_3_cast_fp16)[name = tensor<string, []>("transpose_4")];
            tensor<fp16, [1, 1500, 1, 64]> var_1124_cast_fp16 = slice_by_index(begin = var_1124_begin_0, end = var_1124_end_0, end_mask = var_1124_end_mask_0, x = transpose_4)[name = tensor<string, []>("op_1124_cast_fp16")];
            tensor<int32, [4]> var_1128_begin_0 = const()[name = tensor<string, []>("op_1128_begin_0"), val = tensor<int32, [4]>([0, 0, 0, 64])];
            tensor<int32, [4]> var_1128_end_0 = const()[name = tensor<string, []>("op_1128_end_0"), val = tensor<int32, [4]>([1, 1500, 1, 128])];
            tensor<bool, [4]> var_1128_end_mask_0 = const()[name = tensor<string, []>("op_1128_end_mask_0"), val = tensor<bool, [4]>([true, true, true, false])];
            tensor<fp16, [1, 1500, 1, 64]> var_1128_cast_fp16 = slice_by_index(begin = var_1128_begin_0, end = var_1128_end_0, end_mask = var_1128_end_mask_0, x = transpose_4)[name = tensor<string, []>("op_1128_cast_fp16")];
            tensor<int32, [4]> var_1132_begin_0 = const()[name = tensor<string, []>("op_1132_begin_0"), val = tensor<int32, [4]>([0, 0, 0, 128])];
            tensor<int32, [4]> var_1132_end_0 = const()[name = tensor<string, []>("op_1132_end_0"), val = tensor<int32, [4]>([1, 1500, 1, 192])];
            tensor<bool, [4]> var_1132_end_mask_0 = const()[name = tensor<string, []>("op_1132_end_mask_0"), val = tensor<bool, [4]>([true, true, true, false])];
            tensor<fp16, [1, 1500, 1, 64]> var_1132_cast_fp16 = slice_by_index(begin = var_1132_begin_0, end = var_1132_end_0, end_mask = var_1132_end_mask_0, x = transpose_4)[name = tensor<string, []>("op_1132_cast_fp16")];
            tensor<int32, [4]> var_1136_begin_0 = const()[name = tensor<string, []>("op_1136_begin_0"), val = tensor<int32, [4]>([0, 0, 0, 192])];
            tensor<int32, [4]> var_1136_end_0 = const()[name = tensor<string, []>("op_1136_end_0"), val = tensor<int32, [4]>([1, 1500, 1, 256])];
            tensor<bool, [4]> var_1136_end_mask_0 = const()[name = tensor<string, []>("op_1136_end_mask_0"), val = tensor<bool, [4]>([true, true, true, false])];
            tensor<fp16, [1, 1500, 1, 64]> var_1136_cast_fp16 = slice_by_index(begin = var_1136_begin_0, end = var_1136_end_0, end_mask = var_1136_end_mask_0, x = transpose_4)[name = tensor<string, []>("op_1136_cast_fp16")];
            tensor<int32, [4]> var_1140_begin_0 = const()[name = tensor<string, []>("op_1140_begin_0"), val = tensor<int32, [4]>([0, 0, 0, 256])];
            tensor<int32, [4]> var_1140_end_0 = const()[name = tensor<string, []>("op_1140_end_0"), val = tensor<int32, [4]>([1, 1500, 1, 320])];
            tensor<bool, [4]> var_1140_end_mask_0 = const()[name = tensor<string, []>("op_1140_end_mask_0"), val = tensor<bool, [4]>([true, true, true, false])];
            tensor<fp16, [1, 1500, 1, 64]> var_1140_cast_fp16 = slice_by_index(begin = var_1140_begin_0, end = var_1140_end_0, end_mask = var_1140_end_mask_0, x = transpose_4)[name = tensor<string, []>("op_1140_cast_fp16")];
            tensor<int32, [4]> var_1144_begin_0 = const()[name = tensor<string, []>("op_1144_begin_0"), val = tensor<int32, [4]>([0, 0, 0, 320])];
            tensor<int32, [4]> var_1144_end_0 = const()[name = tensor<string, []>("op_1144_end_0"), val = tensor<int32, [4]>([1, 1500, 1, 384])];
            tensor<bool, [4]> var_1144_end_mask_0 = const()[name = tensor<string, []>("op_1144_end_mask_0"), val = tensor<bool, [4]>([true, true, true, false])];
            tensor<fp16, [1, 1500, 1, 64]> var_1144_cast_fp16 = slice_by_index(begin = var_1144_begin_0, end = var_1144_end_0, end_mask = var_1144_end_mask_0, x = transpose_4)[name = tensor<string, []>("op_1144_cast_fp16")];
            tensor<int32, [4]> var_1148_begin_0 = const()[name = tensor<string, []>("op_1148_begin_0"), val = tensor<int32, [4]>([0, 0, 0, 384])];
            tensor<int32, [4]> var_1148_end_0 = const()[name = tensor<string, []>("op_1148_end_0"), val = tensor<int32, [4]>([1, 1500, 1, 448])];
            tensor<bool, [4]> var_1148_end_mask_0 = const()[name = tensor<string, []>("op_1148_end_mask_0"), val = tensor<bool, [4]>([true, true, true, false])];
            tensor<fp16, [1, 1500, 1, 64]> var_1148_cast_fp16 = slice_by_index(begin = var_1148_begin_0, end = var_1148_end_0, end_mask = var_1148_end_mask_0, x = transpose_4)[name = tensor<string, []>("op_1148_cast_fp16")];
            tensor<int32, [4]> var_1152_begin_0 = const()[name = tensor<string, []>("op_1152_begin_0"), val = tensor<int32, [4]>([0, 0, 0, 448])];
            tensor<int32, [4]> var_1152_end_0 = const()[name = tensor<string, []>("op_1152_end_0"), val = tensor<int32, [4]>([1, 1500, 1, 512])];
            tensor<bool, [4]> var_1152_end_mask_0 = const()[name = tensor<string, []>("op_1152_end_mask_0"), val = tensor<bool, [4]>([true, true, true, false])];
            tensor<fp16, [1, 1500, 1, 64]> var_1152_cast_fp16 = slice_by_index(begin = var_1152_begin_0, end = var_1152_end_0, end_mask = var_1152_end_mask_0, x = transpose_4)[name = tensor<string, []>("op_1152_cast_fp16")];
            tensor<int32, [4]> var_1154_begin_0 = const()[name = tensor<string, []>("op_1154_begin_0"), val = tensor<int32, [4]>([0, 0, 0, 0])];
            tensor<int32, [4]> var_1154_end_0 = const()[name = tensor<string, []>("op_1154_end_0"), val = tensor<int32, [4]>([1, 64, 1, 1500])];
            tensor<bool, [4]> var_1154_end_mask_0 = const()[name = tensor<string, []>("op_1154_end_mask_0"), val = tensor<bool, [4]>([true, false, true, true])];
            tensor<fp16, [1, 64, 1, 1500]> var_1154_cast_fp16 = slice_by_index(begin = var_1154_begin_0, end = var_1154_end_0, end_mask = var_1154_end_mask_0, x = value_3_cast_fp16)[name = tensor<string, []>("op_1154_cast_fp16")];
            tensor<int32, [4]> var_1158_begin_0 = const()[name = tensor<string, []>("op_1158_begin_0"), val = tensor<int32, [4]>([0, 64, 0, 0])];
            tensor<int32, [4]> var_1158_end_0 = const()[name = tensor<string, []>("op_1158_end_0"), val = tensor<int32, [4]>([1, 128, 1, 1500])];
            tensor<bool, [4]> var_1158_end_mask_0 = const()[name = tensor<string, []>("op_1158_end_mask_0"), val = tensor<bool, [4]>([true, false, true, true])];
            tensor<fp16, [1, 64, 1, 1500]> var_1158_cast_fp16 = slice_by_index(begin = var_1158_begin_0, end = var_1158_end_0, end_mask = var_1158_end_mask_0, x = value_3_cast_fp16)[name = tensor<string, []>("op_1158_cast_fp16")];
            tensor<int32, [4]> var_1162_begin_0 = const()[name = tensor<string, []>("op_1162_begin_0"), val = tensor<int32, [4]>([0, 128, 0, 0])];
            tensor<int32, [4]> var_1162_end_0 = const()[name = tensor<string, []>("op_1162_end_0"), val = tensor<int32, [4]>([1, 192, 1, 1500])];
            tensor<bool, [4]> var_1162_end_mask_0 = const()[name = tensor<string, []>("op_1162_end_mask_0"), val = tensor<bool, [4]>([true, false, true, true])];
            tensor<fp16, [1, 64, 1, 1500]> var_1162_cast_fp16 = slice_by_index(begin = var_1162_begin_0, end = var_1162_end_0, end_mask = var_1162_end_mask_0, x = value_3_cast_fp16)[name = tensor<string, []>("op_1162_cast_fp16")];
            tensor<int32, [4]> var_1166_begin_0 = const()[name = tensor<string, []>("op_1166_begin_0"), val = tensor<int32, [4]>([0, 192, 0, 0])];
            tensor<int32, [4]> var_1166_end_0 = const()[name = tensor<string, []>("op_1166_end_0"), val = tensor<int32, [4]>([1, 256, 1, 1500])];
            tensor<bool, [4]> var_1166_end_mask_0 = const()[name = tensor<string, []>("op_1166_end_mask_0"), val = tensor<bool, [4]>([true, false, true, true])];
            tensor<fp16, [1, 64, 1, 1500]> var_1166_cast_fp16 = slice_by_index(begin = var_1166_begin_0, end = var_1166_end_0, end_mask = var_1166_end_mask_0, x = value_3_cast_fp16)[name = tensor<string, []>("op_1166_cast_fp16")];
            tensor<int32, [4]> var_1170_begin_0 = const()[name = tensor<string, []>("op_1170_begin_0"), val = tensor<int32, [4]>([0, 256, 0, 0])];
            tensor<int32, [4]> var_1170_end_0 = const()[name = tensor<string, []>("op_1170_end_0"), val = tensor<int32, [4]>([1, 320, 1, 1500])];
            tensor<bool, [4]> var_1170_end_mask_0 = const()[name = tensor<string, []>("op_1170_end_mask_0"), val = tensor<bool, [4]>([true, false, true, true])];
            tensor<fp16, [1, 64, 1, 1500]> var_1170_cast_fp16 = slice_by_index(begin = var_1170_begin_0, end = var_1170_end_0, end_mask = var_1170_end_mask_0, x = value_3_cast_fp16)[name = tensor<string, []>("op_1170_cast_fp16")];
            tensor<int32, [4]> var_1174_begin_0 = const()[name = tensor<string, []>("op_1174_begin_0"), val = tensor<int32, [4]>([0, 320, 0, 0])];
            tensor<int32, [4]> var_1174_end_0 = const()[name = tensor<string, []>("op_1174_end_0"), val = tensor<int32, [4]>([1, 384, 1, 1500])];
            tensor<bool, [4]> var_1174_end_mask_0 = const()[name = tensor<string, []>("op_1174_end_mask_0"), val = tensor<bool, [4]>([true, false, true, true])];
            tensor<fp16, [1, 64, 1, 1500]> var_1174_cast_fp16 = slice_by_index(begin = var_1174_begin_0, end = var_1174_end_0, end_mask = var_1174_end_mask_0, x = value_3_cast_fp16)[name = tensor<string, []>("op_1174_cast_fp16")];
            tensor<int32, [4]> var_1178_begin_0 = const()[name = tensor<string, []>("op_1178_begin_0"), val = tensor<int32, [4]>([0, 384, 0, 0])];
            tensor<int32, [4]> var_1178_end_0 = const()[name = tensor<string, []>("op_1178_end_0"), val = tensor<int32, [4]>([1, 448, 1, 1500])];
            tensor<bool, [4]> var_1178_end_mask_0 = const()[name = tensor<string, []>("op_1178_end_mask_0"), val = tensor<bool, [4]>([true, false, true, true])];
            tensor<fp16, [1, 64, 1, 1500]> var_1178_cast_fp16 = slice_by_index(begin = var_1178_begin_0, end = var_1178_end_0, end_mask = var_1178_end_mask_0, x = value_3_cast_fp16)[name = tensor<string, []>("op_1178_cast_fp16")];
            tensor<int32, [4]> var_1182_begin_0 = const()[name = tensor<string, []>("op_1182_begin_0"), val = tensor<int32, [4]>([0, 448, 0, 0])];
            tensor<int32, [4]> var_1182_end_0 = const()[name = tensor<string, []>("op_1182_end_0"), val = tensor<int32, [4]>([1, 512, 1, 1500])];
            tensor<bool, [4]> var_1182_end_mask_0 = const()[name = tensor<string, []>("op_1182_end_mask_0"), val = tensor<bool, [4]>([true, false, true, true])];
            tensor<fp16, [1, 64, 1, 1500]> var_1182_cast_fp16 = slice_by_index(begin = var_1182_begin_0, end = var_1182_end_0, end_mask = var_1182_end_mask_0, x = value_3_cast_fp16)[name = tensor<string, []>("op_1182_cast_fp16")];
            tensor<string, []> var_1186_equation_0 = const()[name = tensor<string, []>("op_1186_equation_0"), val = tensor<string, []>("bkhc,bchq->bkhq")];
            tensor<fp16, [1, 1500, 1, 375]> var_1186_cast_fp16 = einsum(equation = var_1186_equation_0, values = (var_1124_cast_fp16, var_902_cast_fp16))[name = tensor<string, []>("op_1186_cast_fp16")];
            tensor<fp16, []> var_1187_to_fp16 = const()[name = tensor<string, []>("op_1187_to_fp16"), val = tensor<fp16, []>(0x1p-3)];
            tensor<fp16, [1, 1500, 1, 375]> aw_chunk_65_cast_fp16 = mul(x = var_1186_cast_fp16, y = var_1187_to_fp16)[name = tensor<string, []>("aw_chunk_65_cast_fp16")];
            tensor<string, []> var_1190_equation_0 = const()[name = tensor<string, []>("op_1190_equation_0"), val = tensor<string, []>("bkhc,bchq->bkhq")];
            tensor<fp16, [1, 1500, 1, 375]> var_1190_cast_fp16 = einsum(equation = var_1190_equation_0, values = (var_1124_cast_fp16, var_909_cast_fp16))[name = tensor<string, []>("op_1190_cast_fp16")];
            tensor<fp16, []> var_1191_to_fp16 = const()[name = tensor<string, []>("op_1191_to_fp16"), val = tensor<fp16, []>(0x1p-3)];
            tensor<fp16, [1, 1500, 1, 375]> aw_chunk_67_cast_fp16 = mul(x = var_1190_cast_fp16, y = var_1191_to_fp16)[name = tensor<string, []>("aw_chunk_67_cast_fp16")];
            tensor<string, []> var_1194_equation_0 = const()[name = tensor<string, []>("op_1194_equation_0"), val = tensor<string, []>("bkhc,bchq->bkhq")];
            tensor<fp16, [1, 1500, 1, 375]> var_1194_cast_fp16 = einsum(equation = var_1194_equation_0, values = (var_1124_cast_fp16, var_916_cast_fp16))[name = tensor<string, []>("op_1194_cast_fp16")];
            tensor<fp16, []> var_1195_to_fp16 = const()[name = tensor<string, []>("op_1195_to_fp16"), val = tensor<fp16, []>(0x1p-3)];
            tensor<fp16, [1, 1500, 1, 375]> aw_chunk_69_cast_fp16 = mul(x = var_1194_cast_fp16, y = var_1195_to_fp16)[name = tensor<string, []>("aw_chunk_69_cast_fp16")];
            tensor<string, []> var_1198_equation_0 = const()[name = tensor<string, []>("op_1198_equation_0"), val = tensor<string, []>("bkhc,bchq->bkhq")];
            tensor<fp16, [1, 1500, 1, 375]> var_1198_cast_fp16 = einsum(equation = var_1198_equation_0, values = (var_1124_cast_fp16, var_923_cast_fp16))[name = tensor<string, []>("op_1198_cast_fp16")];
            tensor<fp16, []> var_1199_to_fp16 = const()[name = tensor<string, []>("op_1199_to_fp16"), val = tensor<fp16, []>(0x1p-3)];
            tensor<fp16, [1, 1500, 1, 375]> aw_chunk_71_cast_fp16 = mul(x = var_1198_cast_fp16, y = var_1199_to_fp16)[name = tensor<string, []>("aw_chunk_71_cast_fp16")];
            tensor<string, []> var_1202_equation_0 = const()[name = tensor<string, []>("op_1202_equation_0"), val = tensor<string, []>("bkhc,bchq->bkhq")];
            tensor<fp16, [1, 1500, 1, 375]> var_1202_cast_fp16 = einsum(equation = var_1202_equation_0, values = (var_1128_cast_fp16, var_930_cast_fp16))[name = tensor<string, []>("op_1202_cast_fp16")];
            tensor<fp16, []> var_1203_to_fp16 = const()[name = tensor<string, []>("op_1203_to_fp16"), val = tensor<fp16, []>(0x1p-3)];
            tensor<fp16, [1, 1500, 1, 375]> aw_chunk_73_cast_fp16 = mul(x = var_1202_cast_fp16, y = var_1203_to_fp16)[name = tensor<string, []>("aw_chunk_73_cast_fp16")];
            tensor<string, []> var_1206_equation_0 = const()[name = tensor<string, []>("op_1206_equation_0"), val = tensor<string, []>("bkhc,bchq->bkhq")];
            tensor<fp16, [1, 1500, 1, 375]> var_1206_cast_fp16 = einsum(equation = var_1206_equation_0, values = (var_1128_cast_fp16, var_937_cast_fp16))[name = tensor<string, []>("op_1206_cast_fp16")];
            tensor<fp16, []> var_1207_to_fp16 = const()[name = tensor<string, []>("op_1207_to_fp16"), val = tensor<fp16, []>(0x1p-3)];
            tensor<fp16, [1, 1500, 1, 375]> aw_chunk_75_cast_fp16 = mul(x = var_1206_cast_fp16, y = var_1207_to_fp16)[name = tensor<string, []>("aw_chunk_75_cast_fp16")];
            tensor<string, []> var_1210_equation_0 = const()[name = tensor<string, []>("op_1210_equation_0"), val = tensor<string, []>("bkhc,bchq->bkhq")];
            tensor<fp16, [1, 1500, 1, 375]> var_1210_cast_fp16 = einsum(equation = var_1210_equation_0, values = (var_1128_cast_fp16, var_944_cast_fp16))[name = tensor<string, []>("op_1210_cast_fp16")];
            tensor<fp16, []> var_1211_to_fp16 = const()[name = tensor<string, []>("op_1211_to_fp16"), val = tensor<fp16, []>(0x1p-3)];
            tensor<fp16, [1, 1500, 1, 375]> aw_chunk_77_cast_fp16 = mul(x = var_1210_cast_fp16, y = var_1211_to_fp16)[name = tensor<string, []>("aw_chunk_77_cast_fp16")];
            tensor<string, []> var_1214_equation_0 = const()[name = tensor<string, []>("op_1214_equation_0"), val = tensor<string, []>("bkhc,bchq->bkhq")];
            tensor<fp16, [1, 1500, 1, 375]> var_1214_cast_fp16 = einsum(equation = var_1214_equation_0, values = (var_1128_cast_fp16, var_951_cast_fp16))[name = tensor<string, []>("op_1214_cast_fp16")];
            tensor<fp16, []> var_1215_to_fp16 = const()[name = tensor<string, []>("op_1215_to_fp16"), val = tensor<fp16, []>(0x1p-3)];
            tensor<fp16, [1, 1500, 1, 375]> aw_chunk_79_cast_fp16 = mul(x = var_1214_cast_fp16, y = var_1215_to_fp16)[name = tensor<string, []>("aw_chunk_79_cast_fp16")];
            tensor<string, []> var_1218_equation_0 = const()[name = tensor<string, []>("op_1218_equation_0"), val = tensor<string, []>("bkhc,bchq->bkhq")];
            tensor<fp16, [1, 1500, 1, 375]> var_1218_cast_fp16 = einsum(equation = var_1218_equation_0, values = (var_1132_cast_fp16, var_958_cast_fp16))[name = tensor<string, []>("op_1218_cast_fp16")];
            tensor<fp16, []> var_1219_to_fp16 = const()[name = tensor<string, []>("op_1219_to_fp16"), val = tensor<fp16, []>(0x1p-3)];
…
            tensor<string, []> var_3902_equation_0 = const()[name = tensor<string, []>("op_3902_equation_0"), val = tensor<string, []>("bkhc,bchq->bkhq")];
            tensor<fp16, [1, 1500, 1, 375]> var_3902_cast_fp16 = einsum(equation = var_3902_equation_0, values = (var_3828_cast_fp16, var_3630_cast_fp16))[name = tensor<string, []>("op_3902_cast_fp16")];
            tensor<fp16, []> var_3903_to_fp16 = const()[name = tensor<string, []>("op_3903_to_fp16"), val = tensor<fp16, []>(0x1p-3)];
            tensor<fp16, [1, 1500, 1, 375]> aw_chunk_329_cast_fp16 = mul(x = var_3902_cast_fp16, y = var_3903_to_fp16)[name = tensor<string, []>("aw_chunk_329_cast_fp16")];
            tensor<string, []> var_3906_equation_0 = const()[name = tensor<string, []>("op_3906_equation_0"), val = tensor<string, []>("bkhc,bchq->bkhq")];
            tensor<fp16, [1, 1500, 1, 375]> var_3906_cast_fp16 = einsum(equation = var_3906_equation_0, values = (var_3828_cast_fp16, var_3637_cast_fp16))[name = tensor<string, []>("op_3906_cast_fp16")];
            tensor<fp16, []> var_3907_to_fp16 = const()[name = tensor<string, []>("op_3907_to_fp16"), val = tensor<fp16, []>(0x1p-3)];
            tensor<fp16, [1, 1500, 1, 375]> aw_chunk_331_cast_fp16 = mul(x = var_3906_cast_fp16, y = var_3907_to_fp16)[name = tensor<string, []>("aw_chunk_331_cast_fp16")];
            tensor<string, []> var_3910_equation_0 = const()[name = tensor<string, []>("op_3910_equation_0"), val = tensor<string, []>("bkhc,bchq->bkhq")];
            tensor<fp16, [1, 1500, 1, 375]> var_3910_cast_fp16 = einsum(equation = var_3910_equation_0, values = (var_3828_cast_fp16, var_3644_cast_fp16))[name = tensor<string, []>("op_3910_cast_fp16")];
            tensor<fp16, []> var_3911_to_fp16 = const()[name = tensor<string, []>("op_3911_to_fp16"), val = tensor<fp16, []>(0x1p-3)];
            tensor<fp16, [1, 1500, 1, 375]> aw_chunk_333_cast_fp16 = mul(x = var_3910_cast_fp16, y = var_3911_to_fp16)[name = tensor<string, []>("aw_chunk_333_cast_fp16")];
            tensor<string, []> var_3914_equation_0 = const()[name = tensor<string, []>("op_3914_equation_0"), val = tensor<string, []>("bkhc,bchq->bkhq")];
            tensor<fp16, [1, 1500, 1, 375]> var_3914_cast_fp16 = einsum(equation = var_3914_equation_0, values = (var_3828_cast_fp16, var_3651_cast_fp16))[name = tensor<string, []>("op_3914_cast_fp16")];
            tensor<fp16, []> var_3915_to_fp16 = const()[name = tensor<string, []>("op_3915_to_fp16"), val = tensor<fp16, []>(0x1p-3)];
            tensor<fp16, [1, 1500, 1, 375]> aw_chunk_335_cast_fp16 = mul(x = var_3914_cast_fp16, y = var_3915_to_fp16)[name = tensor<string, []>("aw_chunk_335_cast_fp16")];
            tensor<string, []> var_3918_equation_0 = const()[name = tensor<string, []>("op_3918_equation_0"), val = tensor<string, []>("bkhc,bchq->bkhq")];
            tensor<fp16, [1, 1500, 1, 375]> var_3918_cast_fp16 = einsum(equation = var_3918_equation_0, values = (var_3832_cast_fp16, var_3658_cast_fp16))[name = tensor<string, []>("op_3918_cast_fp16")];
            tensor<fp16, []> var_3919_to_fp16 = const()[name = tensor<string, []>("op_3919_to_fp16"), val = tensor<fp16, []>(0x1p-3)];
            tensor<fp16, [1, 1500, 1, 375]> aw_chunk_337_cast_fp16 = mul(x = var_3918_cast_fp16, y = var_3919_to_fp16)[name = tensor<string, []>("aw_chunk_337_cast_fp16")];
            tensor<string, []> var_3922_equation_0 = const()[name = tensor<string, []>("op_3922_equation_0"), val = tensor<string, []>("bkhc,bchq->bkhq")];
            tensor<fp16, [1, 1500, 1, 375]> var_3922_cast_fp16 = einsum(equation = var_3922_equation_0, values = (var_3832_cast_fp16, var_3665_cast_fp16))[name = tensor<string, []>("op_3922_cast_fp16")];
            tensor<fp16, []> var_3923_to_fp16 = const()[name = tensor<string, []>("op_3923_to_fp16"), val = tensor<fp16, []>(0x1p-3)];
            tensor<fp16, [1, 1500, 1, 375]> aw_chunk_339_cast_fp16 = mul(x = var_3922_cast_fp16, y = var_3923_to_fp16)[name = tensor<string, []>("aw_chunk_339_cast_fp16")];
            tensor<string, []> var_3926_equation_0 = const()[name = tensor<string, []>("op_3926_equation_0"), val = tensor<string, []>("bkhc,bchq->bkhq")];
            tensor<fp16, [1, 1500, 1, 375]> var_3926_cast_fp16 = einsum(equation = var_3926_equation_0, values = (var_3832_cast_fp16, var_3672_cast_fp16))[name = tensor<string, []>("op_3926_cast_fp16")];
            tensor<fp16, []> var_3927_to_fp16 = const()[name = tensor<string, []>("op_3927_to_fp16"), val = tensor<fp16, []>(0x1p-3)];
            tensor<fp16, [1, 1500, 1, 375]> aw_chunk_341_cast_fp16 = mul(x = var_3926_cast_fp16, y = var_3927_to_fp16)[name = tensor<string, []>("aw_chunk_341_cast_fp16")];
            tensor<string, []> var_3930_equation_0 = const()[name = tensor<string, []>("op_3930_equation_0"), val = tensor<string, []>("bkhc,bchq->bkhq")];
            tensor<fp16, [1, 1500, 1, 375]> var_3930_cast_fp16 = einsum(equation = var_3930_equation_0, values = (var_3832_cast_fp16, var_3679_cast_fp16))[name = tensor<string, []>("op_3930_cast_fp16")];
            tensor<fp16, []> var_3931_to_fp16 = const()[name = tensor<string, []>("op_3931_to_fp16"), val = tensor<fp16, []>(0x1p-3)];
            tensor<fp16, [1, 1500, 1, 375]> aw_chunk_343_cast_fp16 = mul(x = var_3930_cast_fp16, y = var_3931_to_fp16)[name = tensor<string, []>("aw_chunk_343_cast_fp16")];
            tensor<string, []> var_3934_equation_0 = const()[name = tensor<string, []>("op_3934_equation_0"), val = tensor<string, []>("bkhc,bchq->bkhq")];
            tensor<fp16, [1, 1500, 1, 375]> var_3934_cast_fp16 = einsum(equation = var_3934_equation_0, values = (var_3836_cast_fp16, var_3686_cast_fp16))[name = tensor<string, []>("op_3934_cast_fp16")];
            tensor<fp16, []> var_3935_to_fp16 = const()[name = tensor<string, []>("op_3935_to_fp16"), val = tensor<fp16, []>(0x1p-3)];
            tensor<fp16, [1, 1500, 1, 375]> aw_chunk_345_cast_fp16 = mul(x = var_3934_cast_fp16, y = var_3935_to_fp16)[name = tensor<string, []>("aw_chunk_345_cast_fp16")];
            tensor<string, []> var_3938_equation_0 = const()[name = tensor<string, []>("op_3938_equation_0"), val = tensor<string, []>("bkhc,bchq->bkhq")];
            tensor<fp16, [1, 1500, 1, 375]> var_3938_cast_fp16 = einsum(equation = var_3938_equation_0, values = (var_3836_cast_fp16, var_3693_cast_fp16))[name = tensor<string, []>("op_3938_cast_fp16")];
            tensor<fp16, []> var_3939_to_fp16 = const()[name = tensor<string, []>("op_3939_to_fp16"), val = tensor<fp16, []>(0x1p-3)];
            tensor<fp16, [1, 1500, 1, 375]> aw_chunk_347_cast_fp16 = mul(x = var_3938_cast_fp16, y = var_3939_to_fp16)[name = tensor<string, []>("aw_chunk_347_cast_fp16")];
            tensor<string, []> var_3942_equation_0 = const()[name = tensor<string, []>("op_3942_equation_0"), val = tensor<string, []>("bkhc,bchq->bkhq")];
            tensor<fp16, [1, 1500, 1, 375]> var_3942_cast_fp16 = einsum(equation = var_3942_equation_0, values = (var_3836_cast_fp16, var_3700_cast_fp16))[name = tensor<string, []>("op_3942_cast_fp16")];
            tensor<fp16, []> var_3943_to_fp16 = const()[name = tensor<string, []>("op_3943_to_fp16"), val = tensor<fp16, []>(0x1p-3)];
            tensor<fp16, [1, 1500, 1, 375]> aw_chunk_349_cast_fp16 = mul(x = var_3942_cast_fp16, y = var_3943_to_fp16)[name = tensor<string, []>("aw_chunk_349_cast_fp16")];
            tensor<string, []> var_3946_equation_0 = const()[name = tensor<string, []>("op_3946_equation_0"), val = tensor<string, []>("bkhc,bchq->bkhq")];
            tensor<fp16, [1, 1500, 1, 375]> var_3946_cast_fp16 = einsum(equation = var_3946_equation_0, values = (var_3836_cast_fp16, var_3707_cast_fp16))[name = tensor<string, []>("op_3946_cast_fp16")];
            tensor<fp16, []> var_3947_to_fp16 = const()[name = tensor<string, []>("op_3947_to_fp16"), val = tensor<fp16, []>(0x1p-3)];
            tensor<fp16, [1, 1500, 1, 375]> aw_chunk_351_cast_fp16 = mul(x = var_3946_cast_fp16, y = var_3947_to_fp16)[name = tensor<string, []>("aw_chunk_351_cast_fp16")];
            tensor<string, []> var_3950_equation_0 = const()[name = tensor<string, []>("op_3950_equation_0"), val = tensor<string, []>("bkhc,bchq->bkhq")];
            tensor<fp16, [1, 1500, 1, 375]> var_3950_cast_fp16 = einsum(equation = var_3950_equation_0, values = (var_3840_cast_fp16, var_3714_cast_fp16))[name = tensor<string, []>("op_3950_cast_fp16")];
            tensor<fp16, []> var_3951_to_fp16 = const()[name = tensor<string, []>("op_3951_to_fp16"), val = tensor<fp16, []>(0x1p-3)];
            tensor<fp16, [1, 1500, 1, 375]> aw_chunk_353_cast_fp16 = mul(x = var_3950_cast_fp16, y = var_3951_to_fp16)[name = tensor<string, []>("aw_chunk_353_cast_fp16")];
            tensor<string, []> var_3954_equation_0 = const()[name = tensor<string, []>("op_3954_equation_0"), val = tensor<string, []>("bkhc,bchq->bkhq")];
            tensor<fp16, [1, 1500, 1, 375]> var_3954_cast_fp16 = einsum(equation = var_3954_equation_0, values = (var_3840_cast_fp16, var_3721_cast_fp16))[name = tensor<string, []>("op_3954_cast_fp16")];
            tensor<fp16, []> var_3955_to_fp16 = const()[name = tensor<string, []>("op_3955_to_fp16"), val = tensor<fp16, []>(0x1p-3)];
            tensor<fp16, [1, 1500, 1, 375]> aw_chunk_355_cast_fp16 = mul(x = var_3954_cast_fp16, y = var_3955_to_fp16)[name = tensor<string, []>("aw_chunk_355_cast_fp16")];
            tensor<string, []> var_3958_equation_0 = const()[name = tensor<string, []>("op_3958_equation_0"), val = tensor<string, []>("bkhc,bchq->bkhq")];
            tensor<fp16, [1, 1500, 1, 375]> var_3958_cast_fp16 = einsum(equation = var_3958_equation_0, values = (var_3840_cast_fp16, var_3728_cast_fp16))[name = tensor<string, []>("op_3958_cast_fp16")];
            tensor<fp16, []> var_3959_to_fp16 = const()[name = tensor<string, []>("op_3959_to_fp16"), val = tensor<fp16, []>(0x1p-3)];
            tensor<fp16, [1, 1500, 1, 375]> aw_chunk_357_cast_fp16 = mul(x = var_3958_cast_fp16, y = var_3959_to_fp16)[name = tensor<string, []>("aw_chunk_357_cast_fp16")];
            tensor<string, []> var_3962_equation_0 = const()[name = tensor<string, []>("op_3962_equation_0"), val = tensor<string, []>("bkhc,bchq->bkhq")];
            tensor<fp16, [1, 1500, 1, 375]> var_3962_cast_fp16 = einsum(equation = var_3962_equation_0, values = (var_3840_cast_fp16, var_3735_cast_fp16))[name = tensor<string, []>("op_3962_cast_fp16")];
            tensor<fp16, []> var_3963_to_fp16 = const()[name = tensor<string, []>("op_3963_to_fp16"), val = tensor<fp16, []>(0x1p-3)];
            tensor<fp16, [1, 1500, 1, 375]> aw_chunk_359_cast_fp16 = mul(x = var_3962_cast_fp16, y = var_3963_to_fp16)[name = tensor<string, []>("aw_chunk_359_cast_fp16")];
            tensor<string, []> var_3966_equation_0 = const()[name = tensor<string, []>("op_3966_equation_0"), val = tensor<string, []>("bkhc,bchq->bkhq")];
            tensor<fp16, [1, 1500, 1, 375]> var_3966_cast_fp16 = einsum(equation = var_3966_equation_0, values = (var_3844_cast_fp16, var_3742_cast_fp16))[name = tensor<string, []>("op_3966_cast_fp16")];
            tensor<fp16, []> var_3967_to_fp16 = const()[name = tensor<string, []>("op_3967_to_fp16"), val = tensor<fp16, []>(0x1p-3)];
            tensor<fp16, [1, 1500, 1, 375]> aw_chunk_361_cast_fp16 = mul(x = var_3966_cast_fp16, y = var_3967_to_fp16)[name = tensor<string, []>("aw_chunk_361_cast_fp16")];
            tensor<string, []> var_3970_equation_0 = const()[name = tensor<string, []>("op_3970_equation_0"), val = tensor<string, []>("bkhc,bchq->bkhq")];
            tensor<fp16, [1, 1500, 1, 375]> var_3970_cast_fp16 = einsum(equation = var_3970_equation_0, values = (var_3844_cast_fp16, var_3749_cast_fp16))[name = tensor<string, []>("op_3970_cast_fp16")];
            tensor<fp16, []> var_3971_to_fp16 = const()[name = tensor<string, []>("op_3971_to_fp16"), val = tensor<fp16, []>(0x1p-3)];
            tensor<fp16, [1, 1500, 1, 375]> aw_chunk_363_cast_fp16 = mul(x = var_3970_cast_fp16, y = var_3971_to_fp16)[name = tensor<string, []>("aw_chunk_363_cast_fp16")];
            tensor<string, []> var_3974_equation_0 = const()[name = tensor<string, []>("op_3974_equation_0"), val = tensor<string, []>("bkhc,bchq->bkhq")];
            tensor<fp16, [1, 1500, 1, 375]> var_3974_cast_fp16 = einsum(equation = var_3974_equation_0, values = (var_3844_cast_fp16, var_3756_cast_fp16))[name = tensor<string, []>("op_3974_cast_fp16")];
            tensor<fp16, []> var_3975_to_fp16 = const()[name = tensor<string, []>("op_3975_to_fp16"), val = tensor<fp16, []>(0x1p-3)];
            tensor<fp16, [1, 1500, 1, 375]> aw_chunk_365_cast_fp16 = mul(x = var_3974_cast_fp16, y = var_3975_to_fp16)[name = tensor<string, []>("aw_chunk_365_cast_fp16")];
            tensor<string, []> var_3978_equation_0 = const()[name = tensor<string, []>("op_3978_equation_0"), val = tensor<string, []>("bkhc,bchq->bkhq")];
            tensor<fp16, [1, 1500, 1, 375]> var_3978_cast_fp16 = einsum(equation = var_3978_equation_0, values = (var_3844_cast_fp16, var_3763_cast_fp16))[name = tensor<string, []>("op_3978_cast_fp16")];
            tensor<fp16, []> var_3979_to_fp16 = const()[name = tensor<string, []>("op_3979_to_fp16"), val = tensor<fp16, []>(0x1p-3)];
            tensor<fp16, [1, 1500, 1, 375]> aw_chunk_367_cast_fp16 = mul(x = var_3978_cast_fp16, y = var_3979_to_fp16)[name = tensor<string, []>("aw_chunk_367_cast_fp16")];
            tensor<string, []> var_3982_equation_0 = const()[name = tensor<string, []>("op_3982_equation_0"), val = tensor<string, []>("bkhc,bchq->bkhq")];
            tensor<fp16, [1, 1500, 1, 375]> var_3982_cast_fp16 = einsum(equation = var_3982_equation_0, values = (var_3848_cast_fp16, var_3770_cast_fp16))[name = tensor<string, []>("op_3982_cast_fp16")];
            tensor<fp16, []> var_3983_to_fp16 = const()[name = tensor<string, []>("op_3983_to_fp16"), val = tensor<fp16, []>(0x1p-3)];
            tensor<fp16, [1, 1500, 1, 375]> aw_chunk_369_cast_fp16 = mul(x = var_3982_cast_fp16, y = var_3983_to_fp16)[name = tensor<string, []>("aw_chunk_369_cast_fp16")];
            tensor<string, []> var_3986_equation_0 = const()[name = tensor<string, []>("op_3986_equation_0"), val = tensor<string, []>("bkhc,bchq->bkhq")];
            tensor<fp16, [1, 1500, 1, 375]> var_3986_cast_fp16 = einsum(equation = var_3986_equation_0, values = (var_3848_cast_fp16, var_3777_cast_fp16))[name = tensor<string, []>("op_3986_cast_fp16")];
            tensor<fp16, []> var_3987_to_fp16 = const()[name = tensor<string, []>("op_3987_to_fp16"), val = tensor<fp16, []>(0x1p-3)];
            tensor<fp16, [1, 1500, 1, 375]> aw_chunk_371_cast_fp16 = mul(x = var_3986_cast_fp16, y = var_3987_to_fp16)[name = tensor<string, []>("aw_chunk_371_cast_fp16")];
            tensor<string, []> var_3990_equation_0 = const()[name = tensor<string, []>("op_3990_equation_0"), val = tensor<string, []>("bkhc,bchq->bkhq")];
            tensor<fp16, [1, 1500, 1, 375]> var_3990_cast_fp16 = einsum(equation = var_3990_equation_0, values = (var_3848_cast_fp16, var_3784_cast_fp16))[name = tensor<string, []>("op_3990_cast_fp16")];
            tensor<fp16, []> var_3991_to_fp16 = const()[name = tensor<string, []>("op_3991_to_fp16"), val = tensor<fp16, []>(0x1p-3)];
            tensor<fp16, [1, 1500, 1, 375]> aw_chunk_373_cast_fp16 = mul(x = var_3990_cast_fp16, y = var_3991_to_fp16)[name = tensor<string, []>("aw_chunk_373_cast_fp16")];
            tensor<string, []> var_3994_equation_0 = const()[name = tensor<string, []>("op_3994_equation_0"), val = tensor<string, []>("bkhc,bchq->bkhq")];
            tensor<fp16, [1, 1500, 1, 375]> var_3994_cast_fp16 = einsum(equation = var_3994_equation_0, values = (var_3848_cast_fp16, var_3791_cast_fp16))[name = tensor<string, []>("op_3994_cast_fp16")];
            tensor<fp16, []> var_3995_to_fp16 = const()[name = tensor<string, []>("op_3995_to_fp16"), val = tensor<fp16, []>(0x1p-3)];
            tensor<fp16, [1, 1500, 1, 375]> aw_chunk_375_cast_fp16 = mul(x = var_3994_cast_fp16, y = var_3995_to_fp16)[name = tensor<string, []>("aw_chunk_375_cast_fp16")];
            tensor<string, []> var_3998_equation_0 = const()[name = tensor<string, []>("op_3998_equation_0"), val = tensor<string, []>("bkhc,bchq->bkhq")];
            tensor<fp16, [1, 1500, 1, 375]> var_3998_cast_fp16 = einsum(equation = var_3998_equation_0, values = (var_3852_cast_fp16, var_3798_cast_fp16))[name = tensor<string, []>("op_3998_cast_fp16")];
            tensor<fp16, []> var_3999_to_fp16 = const()[name = tensor<string, []>("op_3999_to_fp16"), val = tensor<fp16, []>(0x1p-3)];
            tensor<fp16, [1, 1500, 1, 375]> aw_chunk_377_cast_fp16 = mul(x = var_3998_cast_fp16, y = var_3999_to_fp16)[name = tensor<string, []>("aw_chunk_377_cast_fp16")];
            tensor<string, []> var_4002_equation_0 = const()[name = tensor<string, []>("op_4002_equation_0"), val = tensor<string, []>("bkhc,bchq->bkhq")];
            tensor<fp16, [1, 1500, 1, 375]> var_4002_cast_fp16 = einsum(equation = var_4002_equation_0, values = (var_3852_cast_fp16, var_3805_cast_fp16))[name = tensor<string, []>("op_4002_cast_fp16")];
            tensor<fp16, []> var_4003_to_fp16 = const()[name = tensor<string, []>("op_4003_to_fp16"), val = tensor<fp16, []>(0x1p-3)];
            tensor<fp16, [1, 1500, 1, 375]> aw_chunk_379_cast_fp16 = mul(x = var_4002_cast_fp16, y = var_4003_to_fp16)[name = tensor<string, []>("aw_chunk_379_cast_fp16")];
            tensor<string, []> var_4006_equation_0 = const()[name = tensor<string, []>("op_4006_equation_0"), val = tensor<string, []>("bkhc,bchq->bkhq")];
            tensor<fp16, [1, 1500, 1, 375]> var_4006_cast_fp16 = einsum(equation = var_4006_equation_0, values = (var_3852_cast_fp16, var_3812_cast_fp16))[name = tensor<string, []>("op_4006_cast_fp16")];
            tensor<fp16, []> var_4007_to_fp16 = const()[name = tensor<string, []>("op_4007_to_fp16"), val = tensor<fp16, []>(0x1p-3)];
            tensor<fp16, [1, 1500, 1, 375]> aw_chunk_381_cast_fp16 = mul(x = var_4006_cast_fp16, y = var_4007_to_fp16)[name = tensor<string, []>("aw_chunk_381_cast_fp16")];
            tensor<string, []> var_4010_equation_0 = const()[name = tensor<string, []>("op_4010_equation_0"), val = tensor<string, []>("bkhc,bchq->bkhq")];
            tensor<fp16, [1, 1500, 1, 375]> var_4010_cast_fp16 = einsum(equation = var_4010_equation_0, values = (var_3852_cast_fp16, var_3819_cast_fp16))[name = tensor<string, []>("op_4010_cast_fp16")];
            tensor<fp16, []> var_4011_to_fp16 = const()[name = tensor<string, []>("op_4011_to_fp16"), val = tensor<fp16, []>(0x1p-3)];
            tensor<fp16, [1, 1500, 1, 375]> aw_chunk_cast_fp16 = mul(x = var_4010_cast_fp16, y = var_4011_to_fp16)[name = tensor<string, []>("aw_chunk_cast_fp16")];
            tensor<fp16, [1, 1500, 1, 375]> var_4013_cast_fp16 = softmax(axis = var_3510, x = aw_chunk_321_cast_fp16)[name = tensor<string, []>("op_4013_cast_fp16")];
            tensor<fp16, [1, 1500, 1, 375]> var_4014_cast_fp16 = softmax(axis = var_3510, x = aw_chunk_323_cast_fp16)[name = tensor<string, []>("op_4014_cast_fp16")];
            tensor<fp16, [1, 1500, 1, 375]> var_4015_cast_fp16 = softmax(axis = var_3510, x = aw_chunk_325_cast_fp16)[name = tensor<string, []>("op_4015_cast_fp16")];
            tensor<fp16, [1, 1500, 1, 375]> var_4016_cast_fp16 = softmax(axis = var_3510, x = aw_chunk_327_cast_fp16)[name = tensor<string, []>("op_4016_cast_fp16")];
            tensor<fp16, [1, 1500, 1, 375]> var_4017_cast_fp16 = softmax(axis = var_3510, x = aw_chunk_329_cast_fp16)[name = tensor<string, []>("op_4017_cast_fp16")];
            tensor<fp16, [1, 1500, 1, 375]> var_4018_cast_fp16 = softmax(axis = var_3510, x = aw_chunk_331_cast_fp16)[name = tensor<string, []>("op_4018_cast_fp16")];
            tensor<fp16, [1, 1500, 1, 375]> var_4019_cast_fp16 = softmax(axis = var_3510, x = aw_chunk_333_cast_fp16)[name = tensor<string, []>("op_4019_cast_fp16")];
            tensor<fp16, [1, 1500, 1, 375]> var_4020_cast_fp16 = softmax(axis = var_3510, x = aw_chunk_335_cast_fp16)[name = tensor<string, []>("op_4020_cast_fp16")];
            tensor<fp16, [1, 1500, 1, 375]> var_4021_cast_fp16 = softmax(axis = var_3510, x = aw_chunk_337_cast_fp16)[name = tensor<string, []>("op_4021_cast_fp16")];
            tensor<fp16, [1, 1500, 1, 375]> var_4022_cast_fp16 = softmax(axis = var_3510, x = aw_chunk_339_cast_fp16)[name = tensor<string, []>("op_4022_cast_fp16")];
            tensor<fp16, [1, 1500, 1, 375]> var_4023_cast_fp16 = softmax(axis = var_3510, x = aw_chunk_341_cast_fp16)[name = tensor<string, []>("op_4023_cast_fp16")];
            tensor<fp16, [1, 1500, 1, 375]> var_4024_cast_fp16 = softmax(axis = var_3510, x = aw_chunk_343_cast_fp16)[name = tensor<string, []>("op_4024_cast_fp16")];
            tensor<fp16, [1, 1500, 1, 375]> var_4025_cast_fp16 = softmax(axis = var_3510, x = aw_chunk_345_cast_fp16)[name = tensor<string, []>("op_4025_cast_fp16")];
            tensor<fp16, [1, 1500, 1, 375]> var_4026_cast_fp16 = softmax(axis = var_3510, x = aw_chunk_347_cast_fp16)[name = tensor<string, []>("op_4026_cast_fp16")];
            tensor<fp16, [1, 1500, 1, 375]> var_4027_cast_fp16 = softmax(axis = var_3510, x = aw_chunk_349_cast_fp16)[name = tensor<string, []>("op_4027_cast_fp16")];
            tensor<fp16, [1, 1500, 1, 375]> var_4028_cast_fp16 = softmax(axis = var_3510, x = aw_chunk_351_cast_fp16)[name = tensor<string, []>("op_4028_cast_fp16")];
            tensor<fp16, [1, 1500, 1, 375]> var_4029_cast_fp16 = softmax(axis = var_3510, x = aw_chunk_353_cast_fp16)[name = tensor<string, []>("op_4029_cast_fp16")];
            tensor<fp16, [1, 1500, 1, 375]> var_4030_cast_fp16 = softmax(axis = var_3510, x = aw_chunk_355_cast_fp16)[name = tensor<string, []>("op_4030_cast_fp16")];
            tensor<fp16, [1, 1500, 1, 375]> var_4031_cast_fp16 = softmax(axis = var_3510, x = aw_chunk_357_cast_fp16)[name = tensor<string, []>("op_4031_cast_fp16")];
            tensor<fp16, [1, 1500, 1, 375]> var_4032_cast_fp16 = softmax(axis = var_3510, x = aw_chunk_359_cast_fp16)[name = tensor<string, []>("op_4032_cast_fp16")];
            tensor<fp16, [1, 1500, 1, 375]> var_4033_cast_fp16 = softmax(axis = var_3510, x = aw_chunk_361_cast_fp16)[name = tensor<string, []>("op_4033_cast_fp16")];
            tensor<fp16, [1, 1500, 1, 375]> var_4034_cast_fp16 = softmax(axis = var_3510, x = aw_chunk_363_cast_fp16)[name = tensor<string, []>("op_4034_cast_fp16")];
            tensor<fp16, [1, 1500, 1, 375]> var_4035_cast_fp16 = softmax(axis = var_3510, x = aw_chunk_365_cast_fp16)[name = tensor<string, []>("op_4035_cast_fp16")];
            tensor<fp16, [1, 1500, 1, 375]> var_4036_cast_fp16 = softmax(axis = var_3510, x = aw_chunk_367_cast_fp16)[name = tensor<string, []>("op_4036_cast_fp16")];
            tensor<fp16, [1, 1500, 1, 375]> var_4037_cast_fp16 = softmax(axis = var_3510, x = aw_chunk_369_cast_fp16)[name = tensor<string, []>("op_4037_cast_fp16")];
            tensor<fp16, [1, 1500, 1, 375]> var_4038_cast_fp16 = softmax(axis = var_3510, x = aw_chunk_371_cast_fp16)[name = tensor<string, []>("op_4038_cast_fp16")];
            tensor<fp16, [1, 1500, 1, 375]> var_4039_cast_fp16 = softmax(axis = var_3510, x = aw_chunk_373_cast_fp16)[name = tensor<string, []>("op_4039_cast_fp16")];
            tensor<fp16, [1, 1500, 1, 375]> var_4040_cast_fp16 = softmax(axis = var_3510, x = aw_chunk_375_cast_fp16)[name = tensor<string, []>("op_4040_cast_fp16")];
            tensor<fp16, [1, 1500, 1, 375]> var_4041_cast_fp16 = softmax(axis = var_3510, x = aw_chunk_377_cast_fp16)[name = tensor<string, []>("op_4041_cast_fp16")];
            tensor<fp16, [1, 1500, 1, 375]> var_4042_cast_fp16 = softmax(axis = var_3510, x = aw_chunk_379_cast_fp16)[name = tensor<string, []>("op_4042_cast_fp16")];
            tensor<fp16, [1, 1500, 1, 375]> var_4043_cast_fp16 = softmax(axis = var_3510, x = aw_chunk_381_cast_fp16)[name = tensor<string, []>("op_4043_cast_fp16")];
            tensor<fp16, [1, 1500, 1, 375]> var_4044_cast_fp16 = softmax(axis = var_3510, x = aw_chunk_cast_fp16)[name = tensor<string, []>("op_4044_cast_fp16")];
            tensor<string, []> var_4046_equation_0 = const()[name = tensor<string, []>("op_4046_equation_0"), val = tensor<string, []>("bchk,bkhq->bchq")];
            tensor<fp16, [1, 64, 1, 375]> var_4046_cast_fp16 = einsum(equation = var_4046_equation_0, values = (var_3854_cast_fp16, var_4013_cast_fp16))[name = tensor<string, []>("op_4046_cast_fp16")];
            tensor<string, []> var_4048_equation_0 = const()[name = tensor<string, []>("op_4048_equation_0"), val = tensor<string, []>("bchk,bkhq->bchq")];
            tensor<fp16, [1, 64, 1, 375]> var_4048_cast_fp16 = einsum(equation = var_4048_equation_0, values = (var_3854_cast_fp16, var_4014_cast_fp16))[name = tensor<string, []>("op_4048_cast_fp16")];
            tensor<string, []> var_4050_equation_0 = const()[name = tensor<string, []>("op_4050_equation_0"), val = tensor<string, []>("bchk,bkhq->bchq")];
            tensor<fp16, [1, 64, 1, 375]> var_4050_cast_fp16 = einsum(equation = var_4050_equation_0, values = (var_3854_cast_fp16, var_4015_cast_fp16))[name = tensor<string, []>("op_4050_cast_fp16")];
            tensor<string, []> var_4052_equation_0 = const()[name = tensor<string, []>("op_4052_equation_0"), val = tensor<string, []>("bchk,bkhq->bchq")];
            tensor<fp16, [1, 64, 1, 375]> var_4052_cast_fp16 = einsum(equation = var_4052_equation_0, values = (var_3854_cast_fp16, var_4016_cast_fp16))[name = tensor<string, []>("op_4052_cast_fp16")];
            tensor<string, []> var_4054_equation_0 = const()[name = tensor<string, []>("op_4054_equation_0"), val = tensor<string, []>("bchk,bkhq->bchq")];
            tensor<fp16, [1, 64, 1, 375]> var_4054_cast_fp16 = einsum(equation = var_4054_equation_0, values = (var_3858_cast_fp16, var_4017_cast_fp16))[name = tensor<string, []>("op_4054_cast_fp16")];
            tensor<string, []> var_4056_equation_0 = const()[name = tensor<string, []>("op_4056_equation_0"), val = tensor<string, []>("bchk,bkhq->bchq")];
            tensor<fp16, [1, 64, 1, 375]> var_4056_cast_fp16 = einsum(equation = var_4056_equation_0, values = (var_3858_cast_fp16, var_4018_cast_fp16))[name = tensor<string, []>("op_4056_cast_fp16")];
            tensor<string, []> var_4058_equation_0 = const()[name = tensor<string, []>("op_4058_equation_0"), val = tensor<string, []>("bchk,bkhq->bchq")];
            tensor<fp16, [1, 64, 1, 375]> var_4058_cast_fp16 = einsum(equation = var_4058_equation_0, values = (var_3858_cast_fp16, var_4019_cast_fp16))[name = tensor<string, []>("op_4058_cast_fp16")];
            tensor<string, []> var_4060_equation_0 = const()[name = tensor<string, []>("op_4060_equation_0"), val = tensor<string, []>("bchk,bkhq->bchq")];
            tensor<fp16, [1, 64, 1, 375]> var_4060_cast_fp16 = einsum(equation = var_4060_equation_0, values = (var_3858_cast_fp16, var_4020_cast_fp16))[name = tensor<string, []>("op_4060_cast_fp16")];
            tensor<string, []> var_4062_equation_0 = const()[name = tensor<string, []>("op_4062_equation_0"), val = tensor<string, []>("bchk,bkhq->bchq")];
            tensor<fp16, [1, 64, 1, 375]> var_4062_cast_fp16 = einsum(equation = var_4062_equation_0, values = (var_3862_cast_fp16, var_4021_cast_fp16))[name = tensor<string, []>("op_4062_cast_fp16")];
            tensor<string, []> var_4064_equation_0 = const()[name = tensor<string, []>("op_4064_equation_0"), val = tensor<string, []>("bchk,bkhq->bchq")];
            tensor<fp16, [1, 64, 1, 375]> var_4064_cast_fp16 = einsum(equation = var_4064_equation_0, values = (var_3862_cast_fp16, var_4022_cast_fp16))[name = tensor<string, []>("op_4064_cast_fp16")];
            tensor<string, []> var_4066_equation_0 = const()[name = tensor<string, []>("op_4066_equation_0"), val = tensor<string, []>("bchk,bkhq->bchq")];
            tensor<fp16, [1, 64, 1, 375]> var_4066_cast_fp16 = einsum(equation = var_4066_equation_0, values = (var_3862_cast_fp16, var_4023_cast_fp16))[name = tensor<string, []>("op_4066_cast_fp16")];
            tensor<string, []> var_4068_equation_0 = const()[name = tensor<string, []>("op_4068_equation_0"), val = tensor<string, []>("bchk,bkhq->bchq")];
            tensor<fp16, [1, 64, 1, 375]> var_4068_cast_fp16 = einsum(equation = var_4068_equation_0, values = (var_3862_cast_fp16, var_4024_cast_fp16))[name = tensor<string, []>("op_4068_cast_fp16")];
            tensor<string, []> var_4070_equation_0 = const()[name = tensor<string, []>("op_4070_equation_0"), val = tensor<string, []>("bchk,bkhq->bchq")];
            tensor<fp16, [1, 64, 1, 375]> var_4070_cast_fp16 = einsum(equation = var_4070_equation_0, values = (var_3866_cast_fp16, var_4025_cast_fp16))[name = tensor<string, []>("op_4070_cast_fp16")];
            tensor<string, []> var_4072_equation_0 = const()[name = tensor<string, []>("op_4072_equation_0"), val = tensor<string, []>("bchk,bkhq->bchq")];
            tensor<fp16, [1, 64, 1, 375]> var_4072_cast_fp16 = einsum(equation = var_4072_equation_0, values = (var_3866_cast_fp16, var_4026_cast_fp16))[name = tensor<string, []>("op_4072_cast_fp16")];
            tensor<string, []> var_4074_equation_0 = const()[name = tensor<string, []>("op_4074_equation_0"), val = tensor<string, []>("bchk,bkhq->bchq")];
            tensor<fp16, [1, 64, 1, 375]> var_4074_cast_fp16 = einsum(equation = var_4074_equation_0, values = (var_3866_cast_fp16, var_4027_cast_fp16))[name = tensor<string, []>("op_4074_cast_fp16")];
            tensor<string, []> var_4076_equation_0 = const()[name = tensor<string, []>("op_4076_equation_0"), val = tensor<string, []>("bchk,bkhq->bchq")];
            tensor<fp16, [1, 64, 1, 375]> var_4076_cast_fp16 = einsum(equation = var_4076_equation_0, values = (var_3866_cast_fp16, var_4028_cast_fp16))[name = tensor<string, []>("op_4076_cast_fp16")];
            tensor<string, []> var_4078_equation_0 = const()[name = tensor<string, []>("op_4078_equation_0"), val = tensor<string, []>("bchk,bkhq->bchq")];
            tensor<fp16, [1, 64, 1, 375]> var_4078_cast_fp16 = einsum(equation = var_4078_equation_0, values = (var_3870_cast_fp16, var_4029_cast_fp16))[name = tensor<string, []>("op_4078_cast_fp16")];
            tensor<string, []> var_4080_equation_0 = const()[name = tensor<string, []>("op_4080_equation_0"), val = tensor<string, []>("bchk,bkhq->bchq")];
            tensor<fp16, [1, 64, 1, 375]> var_4080_cast_fp16 = einsum(equation = var_4080_equation_0, values = (var_3870_cast_fp16, var_4030_cast_fp16))[name = tensor<string, []>("op_4080_cast_fp16")];
            tensor<string, []> var_4082_equation_0 = const()[name = tensor<string, []>("op_4082_equation_0"), val = tensor<string, []>("bchk,bkhq->bchq")];
            tensor<fp16, [1, 64, 1, 375]> var_4082_cast_fp16 = einsum(equation = var_4082_equation_0, values = (var_3870_cast_fp16, var_4031_cast_fp16))[name = tensor<string, []>("op_4082_cast_fp16")];
            tensor<string, []> var_4084_equation_0 = const()[name = tensor<string, []>("op_4084_equation_0"), val = tensor<string, []>("bchk,bkhq->bchq")];
            tensor<fp16, [1, 64, 1, 375]> var_4084_cast_fp16 = einsum(equation = var_4084_equation_0, values = (var_3870_cast_fp16, var_4032_cast_fp16))[name = tensor<string, []>("op_4084_cast_fp16")];
            tensor<string, []> var_4086_equation_0 = const()[name = tensor<string, []>("op_4086_equation_0"), val = tensor<string, []>("bchk,bkhq->bchq")];
            tensor<fp16, [1, 64, 1, 375]> var_4086_cast_fp16 = einsum(equation = var_4086_equation_0, values = (var_3874_cast_fp16, var_4033_cast_fp16))[name = tensor<string, []>("op_4086_cast_fp16")];
            tensor<string, []> var_4088_equation_0 = const()[name = tensor<string, []>("op_4088_equation_0"), val = tensor<string, []>("bchk,bkhq->bchq")];
            tensor<fp16, [1, 64, 1, 375]> var_4088_cast_fp16 = einsum(equation = var_4088_equation_0, values = (var_3874_cast_fp16, var_4034_cast_fp16))[name = tensor<string, []>("op_4088_cast_fp16")];
            tensor<string, []> var_4090_equation_0 = const()[name = tensor<string, []>("op_4090_equation_0"), val = tensor<string, []>("bchk,bkhq->bchq")];
            tensor<fp16, [1, 64, 1, 375]> var_4090_cast_fp16 = einsum(equation = var_4090_equation_0, values = (var_3874_cast_fp16, var_4035_cast_fp16))[name = tensor<string, []>("op_4090_cast_fp16")];
            tensor<string, []> var_4092_equation_0 = const()[name = tensor<string, []>("op_4092_equation_0"), val = tensor<string, []>("bchk,bkhq->bchq")];
            tensor<fp16, [1, 64, 1, 375]> var_4092_cast_fp16 = einsum(equation = var_4092_equation_0, values = (var_3874_cast_fp16, var_4036_cast_fp16))[name = tensor<string, []>("op_4092_cast_fp16")];
            tensor<string, []> var_4094_equation_0 = const()[name = tensor<string, []>("op_4094_equation_0"), val = tensor<string, []>("bchk,bkhq->bchq")];
            tensor<fp16, [1, 64, 1, 375]> var_4094_cast_fp16 = einsum(equation = var_4094_equation_0, values = (var_3878_cast_fp16, var_4037_cast_fp16))[name = tensor<string, []>("op_4094_cast_fp16")];
            tensor<string, []> var_4096_equation_0 = const()[name = tensor<string, []>("op_4096_equation_0"), val = tensor<string, []>("bchk,bkhq->bchq")];
            tensor<fp16, [1, 64, 1, 375]> var_4096_cast_fp16 = einsum(equation = var_4096_equation_0, values = (var_3878_cast_fp16, var_4038_cast_fp16))[name = tensor<string, []>("op_4096_cast_fp16")];
            tensor<string, []> var_4098_equation_0 = const()[name = tensor<string, []>("op_4098_equation_0"), val = tensor<string, []>("bchk,bkhq->bchq")];
            tensor<fp16, [1, 64, 1, 375]> var_4098_cast_fp16 = einsum(equation = var_4098_equation_0, values = (var_3878_cast_fp16, var_4039_cast_fp16))[name = tensor<string, []>("op_4098_cast_fp16")];
            tensor<string, []> var_4100_equation_0 = const()[name = tensor<string, []>("op_4100_equation_0"), val = tensor<string, []>("bchk,bkhq->bchq")];
            tensor<fp16, [1, 64, 1, 375]> var_4100_cast_fp16 = einsum(equation = var_4100_equation_0, values = (var_3878_cast_fp16, var_4040_cast_fp16))[name = tensor<string, []>("op_4100_cast_fp16")];
            tensor<string, []> var_4102_equation_0 = const()[name = tensor<string, []>("op_4102_equation_0"), val = tensor<string, []>("bchk,bkhq->bchq")];
            tensor<fp16, [1, 64, 1, 375]> var_4102_cast_fp16 = einsum(equation = var_4102_equation_0, values = (var_3882_cast_fp16, var_4041_cast_fp16))[name = tensor<string, []>("op_4102_cast_fp16")];
            tensor<string, []> var_4104_equation_0 = const()[name = tensor<string, []>("op_4104_equation_0"), val = tensor<string, []>("bchk,bkhq->bchq")];
            tensor<fp16, [1, 64, 1, 375]> var_4104_cast_fp16 = einsum(equation = var_4104_equation_0, values = (var_3882_cast_fp16, var_4042_cast_fp16))[name = tensor<string, []>("op_4104_cast_fp16")];
            tensor<string, []> var_4106_equation_0 = const()[name = tensor<string, []>("op_4106_equation_0"), val = tensor<string, []>("bchk,bkhq->bchq")];
            tensor<fp16, [1, 64, 1, 375]> var_4106_cast_fp16 = einsum(equation = var_4106_equation_0, values = (var_3882_cast_fp16, var_4043_cast_fp16))[name = tensor<string, []>("op_4106_cast_fp16")];
            tensor<string, []> var_4108_equation_0 = const()[name = tensor<string, []>("op_4108_equation_0"), val = tensor<string, []>("bchk,bkhq->bchq")];
            tensor<fp16, [1, 64, 1, 375]> var_4108_cast_fp16 = einsum(equation = var_4108_equation_0, values = (var_3882_cast_fp16, var_4044_cast_fp16))[name = tensor<string, []>("op_4108_cast_fp16")];
            tensor<bool, []> var_4110_interleave_0 = const()[name = tensor<string, []>("op_4110_interleave_0"), val = tensor<bool, []>(false)];
            tensor<fp16, [1, 64, 1, 1500]> var_4110_cast_fp16 = concat(axis = var_3497, interleave = var_4110_interleave_0, values = (var_4046_cast_fp16, var_4048_cast_fp16, var_4050_cast_fp16, var_4052_cast_fp16))[name = tensor<string, []>("op_4110_cast_fp16")];
            tensor<bool, []> var_4112_interleave_0 = const()[name = tensor<string, []>("op_4112_interleave_0"), val = tensor<bool, []>(false)];
            tensor<fp16, [1, 64, 1, 1500]> var_4112_cast_fp16 = concat(axis = var_3497, interleave = var_4112_interleave_0, values = (var_4054_cast_fp16, var_4056_cast_fp16, var_4058_cast_fp16, var_4060_cast_fp16))[name = tensor<string, []>("op_4112_cast_fp16")];
            tensor<bool, []> var_4114_interleave_0 = const()[name = tensor<string, []>("op_4114_interleave_0"), val = tensor<bool, []>(false)];
            tensor<fp16, [1, 64, 1, 1500]> var_4114_cast_fp16 = concat(axis = var_3497, interleave = var_4114_interleave_0, values = (var_4062_cast_fp16, var_4064_cast_fp16, var_4066_cast_fp16, var_4068_cast_fp16))[name = tensor<string, []>("op_4114_cast_fp16")];
            tensor<bool, []> var_4116_interleave_0 = const()[name = tensor<string, []>("op_4116_interleave_0"), val = tensor<bool, []>(false)];
            tensor<fp16, [1, 64, 1, 1500]> var_4116_cast_fp16 = concat(axis = var_3497, interleave = var_4116_interleave_0, values = (var_4070_cast_fp16, var_4072_cast_fp16, var_4074_cast_fp16, var_4076_cast_fp16))[name = tensor<string, []>("op_4116_cast_fp16")];
            tensor<bool, []> var_4118_interleave_0 = const()[name = tensor<string, []>("op_4118_interleave_0"), val = tensor<bool, []>(false)];
            tensor<fp16, [1, 64, 1, 1500]> var_4118_cast_fp16 = concat(axis = var_3497, interleave = var_4118_interleave_0, values = (var_4078_cast_fp16, var_4080_cast_fp16, var_4082_cast_fp16, var_4084_cast_fp16))[name = tensor<string, []>("op_4118_cast_fp16")];
            tensor<bool, []> var_4120_interleave_0 = const()[name = tensor<string, []>("op_4120_interleave_0"), val = tensor<bool, []>(false)];
            tensor<fp16, [1, 64, 1, 1500]> var_4120_cast_fp16 = concat(axis = var_3497, interleave = var_4120_interleave_0, values = (var_4086_cast_fp16, var_4088_cast_fp16, var_4090_cast_fp16, var_4092_cast_fp16))[name = tensor<string, []>("op_4120_cast_fp16")];
            tensor<bool, []> var_4122_interleave_0 = const()[name = tensor<string, []>("op_4122_interleave_0"), val = tensor<bool, []>(false)];
            tensor<fp16, [1, 64, 1, 1500]> var_4122_cast_fp16 = concat(axis = var_3497, interleave = var_4122_interleave_0, values = (var_4094_cast_fp16, var_4096_cast_fp16, var_4098_cast_fp16, var_4100_cast_fp16))[name = tensor<string, []>("op_4122_cast_fp16")];
            tensor<bool, []> var_4124_interleave_0 = const()[name = tensor<string, []>("op_4124_interleave_0"), val = tensor<bool, []>(false)];
            tensor<fp16, [1, 64, 1, 1500]> var_4124_cast_fp16 = concat(axis = var_3497, interleave = var_4124_interleave_0, values = (var_4102_cast_fp16, var_4104_cast_fp16, var_4106_cast_fp16, var_4108_cast_fp16))[name = tensor<string, []>("op_4124_cast_fp16")];
            tensor<bool, []> input_41_interleave_0 = const()[name = tensor<string, []>("input_41_interleave_0"), val = tensor<bool, []>(false)];
            tensor<fp16, [1, 512, 1, 1500]> input_41_cast_fp16 = concat(axis = var_3510, interleave = input_41_interleave_0, values = (var_4110_cast_fp16, var_4112_cast_fp16, var_4114_cast_fp16, var_4116_cast_fp16, var_4118_cast_fp16, var_4120_cast_fp16, var_4122_cast_fp16, var_4124_cast_fp16))[name = tensor<string, []>("input_41_cast_fp16")];
            tensor<int32, [2]> var_4129 = const()[name = tensor<string, []>("op_4129"), val = tensor<int32, [2]>([1, 1])];
            tensor<int32, [2]> var_4131 = const()[name = tensor<string, []>("op_4131"), val = tensor<int32, [2]>([1, 1])];
            tensor<string, []> obj_pad_type_0 = const()[name = tensor<string, []>("obj_pad_type_0"), val = tensor<string, []>("custom")];
            tensor<int32, [4]> obj_pad_0 = const()[name = tensor<string, []>("obj_pad_0"), val = tensor<int32, [4]>([0, 0, 0, 0])];
            tensor<fp16, [512, 512, 1, 1]> layers_5_self_attn_o_proj_weight_to_fp16 = const()[name = tensor<string, []>("layers_5_self_attn_o_proj_weight_to_fp16"), val = tensor<fp16, [512, 512, 1, 1]>(BLOBFILE(path = tensor<string, []>("@model_path/weights/weight.bin"), offset = tensor<uint64, []>(36460160)))];
            tensor<fp16, [512]> layers_5_self_attn_o_proj_bias_to_fp16 = const()[name = tensor<string, []>("layers_5_self_attn_o_proj_bias_to_fp16"), val = tensor<fp16, [512]>(BLOBFILE(path = tensor<string, []>("@model_path/weights/weight.bin"), offset = tensor<uint64, []>(36984512)))];
            tensor<fp16, [1, 512, 1, 1500]> obj_cast_fp16 = conv(bias = layers_5_self_attn_o_proj_bias_to_fp16, dilations = var_4131, groups = var_3510, pad = obj_pad_0, pad_type = obj_pad_type_0, strides = var_4129, weight = layers_5_self_attn_o_proj_weight_to_fp16, x = input_41_cast_fp16)[name = tensor<string, []>("obj_cast_fp16")];
            tensor<fp16, [1, 512, 1, 1500]> inputs_23_cast_fp16 = add(x = inputs_21_cast_fp16, y = obj_cast_fp16)[name = tensor<string, []>("inputs_23_cast_fp16")];
            tensor<int32, [1]> var_4137 = const()[name = tensor<string, []>("op_4137"), val = tensor<int32, [1]>([1])];
            tensor<fp16, [1, 1, 1, 1500]> channels_mean_23_cast_fp16 = reduce_mean(axes = var_4137, keep_dims = var_3511, x = inputs_23_cast_fp16)[name = tensor<string, []>("channels_mean_23_cast_fp16")];
            tensor<fp16, [1, 512, 1, 1500]> zero_mean_23_cast_fp16 = sub(x = inputs_23_cast_fp16, y = channels_mean_23_cast_fp16)[name = tensor<string, []>("zero_mean_23_cast_fp16")];
            tensor<fp16, [1, 512, 1, 1500]> zero_mean_sq_23_cast_fp16 = mul(x = zero_mean_23_cast_fp16, y = zero_mean_23_cast_fp16)[name = tensor<string, []>("zero_mean_sq_23_cast_fp16")];
            tensor<int32, [1]> var_4141 = const()[name = tensor<string, []>("op_4141"), val = tensor<int32, [1]>([1])];
            tensor<fp16, [1, 1, 1, 1500]> var_4142_cast_fp16 = reduce_mean(axes = var_4141, keep_dims = var_3511, x = zero_mean_sq_23_cast_fp16)[name = tensor<string, []>("op_4142_cast_fp16")];
            tensor<fp16, []> var_4143_to_fp16 = const()[name = tensor<string, []>("op_4143_to_fp16"), val = tensor<fp16, []>(0x1.5p-17)];
            tensor<fp16, [1, 1, 1, 1500]> var_4144_cast_fp16 = add(x = var_4142_cast_fp16, y = var_4143_to_fp16)[name = tensor<string, []>("op_4144_cast_fp16")];
            tensor<fp32, []> denom_23_epsilon_0 = const()[name = tensor<string, []>("denom_23_epsilon_0"), val = tensor<fp32, []>(0x1.197998p-40)];
            tensor<fp16, [1, 1, 1, 1500]> denom_23_cast_fp16 = rsqrt(epsilon = denom_23_epsilon_0, x = var_4144_cast_fp16)[name = tensor<string, []>("denom_23_cast_fp16")];
            tensor<fp16, [1, 512, 1, 1500]> out_23_cast_fp16 = mul(x = zero_mean_23_cast_fp16, y = denom_23_cast_fp16)[name = tensor<string, []>("out_23_cast_fp16")];
            tensor<fp16, [512]> input_43_gamma_0_to_fp16 = const()[name = tensor<string, []>("input_43_gamma_0_to_fp16"), val = tensor<fp16, [512]>(BLOBFILE(path = tensor<string, []>("@model_path/weights/weight.bin"), offset = tensor<uint64, []>(36985600)))];
            tensor<fp16, [512]> input_43_beta_0_to_fp16 = const()[name = tensor<string, []>("input_43_beta_0_to_fp16"), val = tensor<fp16, [512]>(BLOBFILE(path = tensor<string, []>("@model_path/weights/weight.bin"), offset = tensor<uint64, []>(36986688)))];
            tensor<fp16, []> input_43_epsilon_0_to_fp16 = const()[name = tensor<string, []>("input_43_epsilon_0_to_fp16"), val = tensor<fp16, []>(0x1.5p-17)];
            tensor<fp16, [1, 512, 1, 1500]> input_43_cast_fp16 = batch_norm(beta = input_43_beta_0_to_fp16, epsilon = input_43_epsilon_0_to_fp16, gamma = input_43_gamma_0_to_fp16, mean = obj_1_mean_0_to_fp16, variance = obj_1_variance_0_to_fp16, x = out_23_cast_fp16)[name = tensor<string, []>("input_43_cast_fp16")];
            tensor<int32, [2]> var_4155 = const()[name = tensor<string, []>("op_4155"), val = tensor<int32, [2]>([1, 1])];
            tensor<int32, [2]> var_4157 = const()[name = tensor<string, []>("op_4157"), val = tensor<int32, [2]>([1, 1])];
            tensor<string, []> input_45_pad_type_0 = const()[name = tensor<string, []>("input_45_pad_type_0"), val = tensor<string, []>("custom")];
            tensor<int32, [4]> input_45_pad_0 = const()[name = tensor<string, []>("input_45_pad_0"), val = tensor<int32, [4]>([0, 0, 0, 0])];
            tensor<fp16, [2048, 512, 1, 1]> layers_5_fc1_weight_to_fp16 = const()[name = tensor<string, []>("layers_5_fc1_weight_to_fp16"), val = tensor<fp16, [2048, 512, 1, 1]>(BLOBFILE(path = tensor<string, []>("@model_path/weights/weight.bin"), offset = tensor<uint64, []>(36987776)))];
            tensor<fp16, [2048]> layers_5_fc1_bias_to_fp16 = const()[name = tensor<string, []>("layers_5_fc1_bias_to_fp16"), val = tensor<fp16, [2048]>(BLOBFILE(path = tensor<string, []>("@model_path/weights/weight.bin"), offset = tensor<uint64, []>(39084992)))];
            tensor<fp16, [1, 2048, 1, 1500]> input_45_cast_fp16 = conv(bias = layers_5_fc1_bias_to_fp16, dilations = var_4157, groups = var_3510, pad = input_45_pad_0, pad_type = input_45_pad_type_0, strides = var_4155, weight = layers_5_fc1_weight_to_fp16, x = input_43_cast_fp16)[name = tensor<string, []>("input_45_cast_fp16")];
            tensor<string, []> input_mode_0 = const()[name = tensor<string, []>("input_mode_0"), val = tensor<string, []>("EXACT")];
            tensor<fp16, [1, 2048, 1, 1500]> input_cast_fp16 = gelu(mode = input_mode_0, x = input_45_cast_fp16)[name = tensor<string, []>("input_cast_fp16")];
            tensor<int32, [2]> var_4163 = const()[name = tensor<string, []>("op_4163"), val = tensor<int32, [2]>([1, 1])];
            tensor<int32, [2]> var_4165 = const()[name = tensor<string, []>("op_4165"), val = tensor<int32, [2]>([1, 1])];
            tensor<string, []> hidden_states_pad_type_0 = const()[name = tensor<string, []>("hidden_states_pad_type_0"), val = tensor<string, []>("custom")];
            tensor<int32, [4]> hidden_states_pad_0 = const()[name = tensor<string, []>("hidden_states_pad_0"), val = tensor<int32, [4]>([0, 0, 0, 0])];
            tensor<fp16, [512, 2048, 1, 1]> layers_5_fc2_weight_to_fp16 = const()[name = tensor<string, []>("layers_5_fc2_weight_to_fp16"), val = tensor<fp16, [512, 2048, 1, 1]>(BLOBFILE(path = tensor<string, []>("@model_path/weights/weight.bin"), offset = tensor<uint64, []>(39089152)))];
            tensor<fp16, [512]> layers_5_fc2_bias_to_fp16 = const()[name = tensor<string, []>("layers_5_fc2_bias_to_fp16"), val = tensor<fp16, [512]>(BLOBFILE(path = tensor<string, []>("@model_path/weights/weight.bin"), offset = tensor<uint64, []>(41186368)))];
            tensor<fp16, [1, 512, 1, 1500]> hidden_states_cast_fp16 = conv(bias = layers_5_fc2_bias_to_fp16, dilations = var_4165, groups = var_3510, pad = hidden_states_pad_0, pad_type = hidden_states_pad_type_0, strides = var_4163, weight = layers_5_fc2_weight_to_fp16, x = input_cast_fp16)[name = tensor<string, []>("hidden_states_cast_fp16")];
            tensor<fp16, [1, 512, 1, 1500]> inputs_cast_fp16 = add(x = inputs_23_cast_fp16, y = hidden_states_cast_fp16)[name = tensor<string, []>("inputs_cast_fp16")];
            tensor<bool, []> var_4171 = const()[name = tensor<string, []>("op_4171"), val = tensor<bool, []>(true)];
            tensor<int32, [1]> var_4175 = const()[name = tensor<string, []>("op_4175"), val = tensor<int32, [1]>([1])];
            tensor<fp16, [1, 1, 1, 1500]> channels_mean_cast_fp16 = reduce_mean(axes = var_4175, keep_dims = var_4171, x = inputs_cast_fp16)[name = tensor<string, []>("channels_mean_cast_fp16")];
            tensor<fp16, [1, 512, 1, 1500]> zero_mean_cast_fp16 = sub(x = inputs_cast_fp16, y = channels_mean_cast_fp16)[name = tensor<string, []>("zero_mean_cast_fp16")];
            tensor<fp16, [1, 512, 1, 1500]> zero_mean_sq_cast_fp16 = mul(x = zero_mean_cast_fp16, y = zero_mean_cast_fp16)[name = tensor<string, []>("zero_mean_sq_cast_fp16")];
            tensor<int32, [1]> var_4179 = const()[name = tensor<string, []>("op_4179"), val = tensor<int32, [1]>([1])];
            tensor<fp16, [1, 1, 1, 1500]> var_4180_cast_fp16 = reduce_mean(axes = var_4179, keep_dims = var_4171, x = zero_mean_sq_cast_fp16)[name = tensor<string, []>("op_4180_cast_fp16")];
            tensor<fp16, []> var_4181_to_fp16 = const()[name = tensor<string, []>("op_4181_to_fp16"), val = tensor<fp16, []>(0x1.5p-17)];
            tensor<fp16, [1, 1, 1, 1500]> var_4182_cast_fp16 = add(x = var_4180_cast_fp16, y = var_4181_to_fp16)[name = tensor<string, []>("op_4182_cast_fp16")];
            tensor<fp32, []> denom_epsilon_0 = const()[name = tensor<string, []>("denom_epsilon_0"), val = tensor<fp32, []>(0x1.197998p-40)];
            tensor<fp16, [1, 1, 1, 1500]> denom_cast_fp16 = rsqrt(epsilon = denom_epsilon_0, x = var_4182_cast_fp16)[name = tensor<string, []>("denom_cast_fp16")];
            tensor<fp16, [1, 512, 1, 1500]> out_cast_fp16 = mul(x = zero_mean_cast_fp16, y = denom_cast_fp16)[name = tensor<string, []>("out_cast_fp16")];
            tensor<fp16, [512]> encoder_output_embeds_type_fp32_gamma_0_to_fp16 = const()[name = tensor<string, []>("encoder_output_embeds_type_fp32_gamma_0_to_fp16"), val = tensor<fp16, [512]>(BLOBFILE(path = tensor<string, []>("@model_path/weights/weight.bin"), offset = tensor<uint64, []>(41187456)))];
            tensor<fp16, [512]> encoder_output_embeds_type_fp32_beta_0_to_fp16 = const()[name = tensor<string, []>("encoder_output_embeds_type_fp32_beta_0_to_fp16"), val = tensor<fp16, [512]>(BLOBFILE(path = tensor<string, []>("@model_path/weights/weight.bin"), offset = tensor<uint64, []>(41188544)))];
            tensor<fp16, []> encoder_output_embeds_type_fp32_epsilon_0_to_fp16 = const()[name = tensor<string, []>("encoder_output_embeds_type_fp32_epsilon_0_to_fp16"), val = tensor<fp16, []>(0x1.5p-17)];
            tensor<fp16, [1, 512, 1, 1500]> encoder_output_embeds = batch_norm(beta = encoder_output_embeds_type_fp32_beta_0_to_fp16, epsilon = encoder_output_embeds_type_fp32_epsilon_0_to_fp16, gamma = encoder_output_embeds_type_fp32_gamma_0_to_fp16, mean = obj_1_mean_0_to_fp16, variance = obj_1_variance_0_to_fp16, x = out_cast_fp16)[name = tensor<string, []>("encoder_output_embeds_type_fp32_cast_fp16")];
        } -> (encoder_output_embeds);
}